models/collision_risk_model.pth (torch, 6001 bytes, 5 tensors)

net.0.weight f4 [32, 3]
00000000: 7690 5d3f db45 18c0 13f1 17bf 12e4 8dbf
00000010: 7c47 a840 5bc0 603f a9b9 b2bb 8aed 9e40
00000020: cc0f 71be ec20 003e f80d b4be 0014 35bd
00000030: d147 363e 5469 fd40 6c74 35be 18e8 183f
00000040: 8553 1040 2f91 fdbe 25fb 19bf 1e40 0f40
00000050: b5a3 173f 4781 1e3d d08e 1740 08ea 03be
00000060: 188b 8ebd 1dc0 113e bec6 0abf bf21 bbbf
00000070: 0e02 4d40 6581 c23f bc90 893f 27aa 47be
00000080: 3cbd 1ac0 c449 4dbe f9be 053f f5a1 183f
00000090: b5c1 923f 0079 ffbf b4db b23e 0a0a 00be
000000a0: d69f 2640 405f 883e 6bc2 50bc 9f69 0f41
000000b0: 5537 f73d c9bd 23bf db77 4b40 d697 cb3e
000000c0: 0033 06bd 18ed 1ebe be33 fabe db54 c7bf
000000d0: d13c b5be 7c96 cb3f 92a9 06bf 36e3 1840
000000e0: 1b19 8f3e de91 b63e 793b c33e 1912 19bd
000000f0: 3984 b03d 6cbe 0e3f eb35 cf3e 2d23 07c0
00000100: a33e 8cbf d8ad 0b40 fc33 dd3c 6796 ef40
00000110: 8830 53bc 1f41 b43d c349 d03f a2f1 00be
00000120: 10e7 41bd e49f e1bd 2eea 893e 803b c3bb
00000130: 50be ab3e 50ce 7cbe 2d64 01bf 000c d03b
00000140: 4064 443c bbe7 0e3f 03b3 4740 e665 4cbf
00000150: a100 e63f dff5 43c0 dad9 48bf da2e b73f
00000160: 482a 53c0 febe bbbe 457f a3c1 899f 6740
00000170: 1df2 4341 f403 cc3e 84c4 f0bf fe85 10bf
0.86548555 -2.3792636 -0.59352225 -1.1085227 5.258726 0.8779351 -0.0054542613 4.9664965
-0.23541182 0.12512559 -0.35166907 -0.044208527 0.17800833 7.9191074 -0.17720193 0.59729147
2.2550976 -0.4952483 -0.6014884 2.2382884 0.5923417 0.038697507 2.3680916 -0.12882245
-0.06960124 0.14233442 -0.54209507 -1.4619673 3.2032504 1.5195738 1.0747294 -0.19498502
-2.4178 -0.2004767 0.52244526 0.59622127 1.1465365 -1.9958801 0.34933245 -0.1250383
2.6035056 0.2663517 -0.012741665 8.963286 0.120711006 -0.63961464 3.1791904 0.3976428
-0.03276348 -0.15520132 -0.488676 -1.5572771 -0.35397962 1.5905299 -0.52602494 2.3888679
0.2794884 0.35658163 0.38131312 -0.037370775 0.086189695 0.5575931 0.40470824 -2.111522
-1.0956615 2.1824856 0.027002327 7.4871097 -0.012889989 0.08801483 1.627251 -0.12592176
-0.0473395 -0.11016825 0.26936477 -0.0059580207 0.33543634 -0.24688077 -0.5054348 0.0063490868
0.011986792 0.5582234 3.120301 -0.79842985 1.7968942 -3.0618818 -0.78457415 1.4311173
-3.2994556 -0.36669153 -20.437143 3.6191123 12.24661 0.39846766 -1.8809972 -0.56454456

net.0.bias f4 [32]
00000000: 3c43 f6bd 5f00 5a3d 079d 2cbe f86a 44be
00000010: 768a 45be 534a 9bbe 3dc0 d4bd a4b9 1dbe
00000020: aa78 7cbd 20f3 0cbd 7358 f03d 659a f4be
00000030: b745 d3be 1f45 71be c115 62be 03f0 ccbd
00000040: 6801 78be 6682 96bb 2f22 b7bd 0d7a bbbe
00000050: d32a e7be b250 f73c 5d69 41be abc4 1abe
00000060: 0d39 07bf 994d 0fbf c000 5bbc 1ca7 31be
00000070: c455 543d 697c 9bbd 9b6d 49bd ac13 dbbd
-0.12024543 0.05322301 -0.16856776 -0.1918143 -0.192911 -0.30330142 -0.10388229 -0.15402848
-0.06163851 -0.03441155 0.1173562 -0.47774044 -0.41264126 -0.23561524 -0.22078611 -0.10006716
-0.24219286 -0.0045931814 -0.08942067 -0.36616555 -0.4514986 0.030189846 -0.18887849 -0.15114085
-0.5282143 -0.5597778 -0.013366878 -0.17348903 0.051839605 -0.07592089 -0.049176794 -0.106971115

net.2.weight f4 [16, 32]
00000000: 086f 7d3d 7c24 bcbe ca93 6b3e 628b df3d
00000010: 73ef 8ebe 6307 6f3d 5139 753d a3e2 b4bd
00000020: be89 f93d 8b3f 03bf af89 e5bd 00ed 053d
00000030: 0a18 4bbd 09e0 2ebe 97ff c8be 8a09 1fbe
00000040: 39b9 25be 2293 0cbd 4584 ae3d de06 cc3d
00000050: 61e4 163e 5733 dbbd 05dd 2dbe 6d64 073e
00000060: 1d26 103e d8c2 8b3d b056 4a3c 72b3 15be
00000070: 6542 fcbd 4081 443e 6cb2 32bf 90f1 a6bd
00000080: fd35 2fbe 6424 c2bd 558e 093e 445c 54bd
00000090: 2cb7 d9bd 9cd0 2fbe c0f5 123d 90c2 03be
000000a0: fac1 bd3d 60a5 25be 17ab 0abe 4026 b13b
000000b0: df14 12be e359 103e d8bc 15be 6be1 12be
000000c0: d6ea f0bd ff8f a2bd 6fa1 02be 0c12 2d3d
000000d0: 6045 a6bb 789a 8ebc 1c59 443d 34a8 7cbd
000000e0: 1bb7 233e 4652 9c3d 3164 04be 8865 87bc
000000f0: 4031 d6bc 4e2b ca3d 24de 323d 9ace 05be
00000100: 3654 6dbd f782 84be a0a9 d0bd 682e e7bc
00000110: 467c 67bd 26a4 f53d 30c9 0c3e c7bd a73d
00000120: ed22 003e 0034 14bc fb74 16be 9719 b9bd
00000130: c5b2 a03d dd3b c73c 92b5 0fbe fee1 9b3d
00000140: 5d2c 21be eb2d 503e 7cba 1b3e 9b6a 89bd
00000150: 3061 c1bd e92d 72bb 8be2 fdbd ed57 1cbe
00000160: 900b 523d dfda 013e b854 153d 782b 2fbe
00000170: 4be4 1bbe 5e1e dc3c 5ce5 91bd f064 e1bd
00000180: 7dd3 6b3d 0d5b f83e 0edb 0440 3535 83bd
00000190: 91cd 0c41 36ce 35bf cb4c 2e3d ecc7 57bd
000001a0: 6c30 6a3c 19ce f73e 4a60 1abf ccc6 cb3d
000001b0: 96c2 5f3d ec9b 62bd 2666 8e40 5e76 6ebe
000001c0: fccc aabd d0bb da3f cb71 34be 71f6 803d
000001d0: 13c8 273e 17a7 0f41 7ddb d93f 8aee 523c
000001e0: 5e26 f83d 0a34 32be 09e3 8dbd a923 11bf
000001f0: e302 1bbe 33cb a6bd 37b0 ee40 581a 873d
00000200: b2ab fbbd 926b d6bc 4748 dabd eb2a 90bd
00000210: e0ec c73c 27cb 21bd b9d0 f23d c997 e13d
00000220: d997 203e 39c2 40bd 6fe9 d33c 1a9c fe3d
00000230: e5e8 363c a6ff b6bd f045 32be e2b5 13be
00000240: fde3 cebd 8203 1cbe f446 d9bc d53f e3bd
00000250: 3754 4a3d 4969 063e b4ec 3ebe c469 e73d
00000260: 60f4 c6bb e642 c73d 87c5 213e 74b6 b63d
00000270: 2790 62bd 694b da3d 5dd8 96bd 67f6 86ba
00000280: ba57 cbbb 0bf4 e23e 5969 1a40 6ddf 2ebe
00000290: 9227 0e41 abc9 d1be b44b 65bc 3e5a a1bd
000002a0: 3f9e 50bd 386a bc3e 8ff6 0bbf e52c 033e
000002b0: 8095 37be ce9e 903d 7c2e 9340 7e57 96be
000002c0: e86e 0abe 84db ae3f aef7 2dbe 3b8a 883d
000002d0: c89e 143e e8da 0741 f69d 0540 fa22 34be
000002e0: 4e20 1fbe 8800 b23c 46fc 13be 90fb eabd
000002f0: a146 e1bd 6be0 433c 98f3 f040 9c98 5dbd
00000300: 51f1 3f3e 731e 513f b632 4740 10bd 92bc
00000310: 4e9a 2041 3ec2 623f b249 143e 240b 393e
00000320: 2b3d 15be 3361 8a3e 5982 0b3e 00a4 f63d
00000330: d54e abbe 789f df3d fee0 a740 1999 e43c
00000340: aebb 10be 4887 bb3f 3f7c a23e 83ce ff3d
00000350: 350d 3ebc 082e 0641 a79e 0d40 1ae1 00be
00000360: e67c ae3d b3cb 0c3e d8b3 e0bd 9242 983f
00000370: df01 2ebf d217 34bf 0b23 fa40 7846 993f
00000380: 55cf 7c3f e959 6f3e 1b1d 00c0 b44b 623d
00000390: 0ca4 00c1 1758 aa3f 4cfa 1e3d 70de 9f3e
000003a0: 6129 1f3e 3067 bcbd 3147 1140 d284 7fbd
000003b0: 0b94 463f bb90 d33e fb68 5dc0 6654 0a3f
000003c0: 7253 2ebe 4278 ecbf a725 043f 1b41 a13d
000003d0: c2ff 1bbe 30c8 13c1 3121 99bf 56c3 c83e
000003e0: 4c56 403d acb7 28be ed3f 0ebe d0da ae3f
000003f0: 25cd bc3f 5436 a03f 08c2 d4c0 d934 953f
0.061873466 -0.36746585 0.23005596 0.10915257 -0.2791706 0.058356654 0.059869114 -0.0883229
0.12184475 -0.51268834 -0.11207902 0.032696724 -0.049583472 -0.1707765 -0.392575 -0.15530983
-0.16183938 -0.034320004 0.08521322 0.09962247 0.14735557 -0.10703152 -0.16978844 0.13221903
0.14077039 0.06824273 0.0123497695 -0.14619234 -0.12317351 0.1918993 -0.698035 -0.08151543
-0.17110439 -0.09479597 0.13433202 -0.051845804 -0.106306404 -0.17169422 0.035878897 -0.12867188
0.09265514 -0.16176367 -0.13541828 0.005406171 -0.14265774 0.14096789 -0.1462282 -0.14343803
-0.117635414 -0.07937621 -0.12756895 0.04225354 -0.005074188 -0.01740764 0.047936544 -0.06168385
0.15987818 0.0763288 -0.12928845 -0.016527906 -0.026146531 0.09871541 0.04366888 -0.13067093
-0.057941638 -0.25881168 -0.101886034 -0.02822037 -0.056515 0.119941995 0.13748622 0.08190494
0.12513323 -0.009045601 -0.14693062 -0.09038084 0.078465976 0.024320537 -0.14034107 0.07611464
-0.1573958 0.20330016 0.15207857 -0.067097865 -0.09442365 -0.0036953634 -0.12396725 -0.15267916
0.051280558 0.12681149 0.036457747 -0.17106426 -0.15223806 0.026869949 -0.07123825 -0.110055804
0.057574738 0.48506966 2.07587 -0.06406633 8.800187 -0.7101778 0.042553704 -0.052680895
0.014293771 0.48399428 -0.60303175 0.09950027 0.05462893 -0.05532448 4.4499693 -0.23287341
-0.08339879 1.7088566 -0.17621534 0.06297005 0.16384916 8.978293 1.7020108 0.012874255
0.12116693 -0.17402664 -0.06928069 -0.5669504 -0.1513782 -0.08144226 7.4590106 0.065968215
-0.12288608 -0.02617434 -0.10658317 -0.07039436 0.024404943 -0.03950038 0.11856217 0.11015279
0.15682925 -0.047060225 0.025868146 0.12432118 0.011163925 -0.0893548 -0.17409492 -0.14424852
-0.10102079 -0.15235713 -0.02652309 -0.11096159 0.04939672 0.131261 -0.18644983 0.1129947
-0.0060716122 0.09729557 0.15798007 0.08921519 -0.055313256 0.106589146 -0.07365487 -0.0010296822
-0.006205526 0.44326815 2.41268 -0.17077418 8.884661 -0.40974173 -0.0139951 -0.078785405
-0.050932165 0.36799788 -0.54673094 0.12810095 -0.17928123 0.070615396 4.5994244 -0.29363626
-0.1351887 1.3660741 -0.16989014 0.0666699 0.14513695 8.490944 2.0877662 -0.17591467
-0.15539667 0.021728769 -0.14451703 -0.11473763 -0.109997995 0.011955361 7.5297356 -0.054100618
0.18744399 0.81687087 3.1124701 -0.017912418 10.037672 0.8857764 0.14481238 0.18070656
-0.14574115 0.27027282 0.13623942 0.12042999 -0.33458582 0.10919088 5.246215 0.027905034
-0.14134094 1.465066 0.31735417 0.12490561 -0.0115998285 8.386238 2.2128084 -0.1258587
0.08519916 0.1374958 -0.109718025 1.1895316 -0.67971605 -0.70348847 7.8167777 1.197463
0.98753864 0.23374142 -2.0017765 0.055247977 -8.0400505 1.3308133 0.03881292 0.31224394
0.15543129 -0.09199369 2.2699702 -0.062382527 0.77569646 0.41321358 -3.4595325 0.5403503
-0.1702402 -1.84742 0.5161995 0.07873746 -0.15234283 -9.236374 -1.1963254 0.3921153
0.0469573 -0.16476315 -0.13891573 1.3660526 1.4750105 1.251658 -6.6486855 1.1656753

net.2.bias f4 [16]
00000000: 2d92 22bd f1f0 14be 7e61 13bd 1dbc a33d
00000010: 459e 0cbe 9a6a 883d cb25 8bbd 2f5a a03f
00000020: e5e4 6abe 14d5 49bd ac1b e8bd 4a96 71be
00000030: c23a 6e3d 9183 733d 32d2 7ebd 1206 fc3d
-0.039690185 -0.14545037 -0.035981648 0.07994864 -0.1373225 0.06660958 -0.06794318 1.2527522
-0.22938879 -0.049275473 -0.11333403 -0.23592487 0.058161505 0.059451643 -0.062212177 0.12305845

net.4.weight f4 [1, 16]
00000000: 1180 84bc d86d 093d 8925 9b3d c1de debf
00000010: 7263 fc3d f3c0 c5bf fc0a 5bc0 4ab1 0540
00000020: 0192 8ac0 a766 e1ba 668e 61c0 3acd 4bc0
00000030: e643 02c0 85e2 f4bf 49eb 913a 9207 13c0
-0.016174348 0.03355202 0.07575519 -1.7411729 0.12323655 -1.5449508 -3.4225454 2.0889459
-4.3303227 -0.001719673 -3.5243163 -3.184401 -2.0353942 -1.9131628 0.0011132743 -2.297337
