models/headway_seq_model.pth (torch, 73979 bytes, 6 tensors)

lstm.weight_ih_l0 f4 [256, 3]
-0.020951543 0.05257448 1.7204026 -0.08600575 0.22649401 0.6390714 0.03354301 0.124626085
1.4130797 0.080352336 -0.05443067 0.08097252 0.0076828543 -0.0024961382 -0.04379987 0.374266
-0.26703018 -0.3939867 0.25174716 -0.19438604 0.52601415 0.036072344 -0.07359939 -0.19505522
-0.11199537 0.0044074827 0.03545141 -0.07805492 0.010349556 -0.0143029075 -0.02055007 0.055431128
0.64106834 0.037590425 0.010126324 0.072554804 0.009341117 -0.034047004 -0.43581793 0.19019505
0.20637733 0.13802297 -0.052784998 -0.15927586 -0.08892404 -0.08220358 0.95489347 1.6584415
-0.0159438 -0.0020107296 0.22325541 -0.08427857 0.027163113 0.2222152 0.2450419 -0.25578722
0.12130428 0.23983425 0.95160687 0.46044165 -0.02773347 0.013658933 0.09206321 -0.011516816
0.14170867 0.18365452 -0.008842709 -0.0082450565 0.058582906 0.0053913584 -0.0066383034 0.23231679
-0.116663665 0.18754388 0.3302569 -0.08163628 0.06910881 0.80258524 -0.010252744 0.013715686
0.21783586 1.1733053 0.6307467 0.7756196 0.12196082 0.10535017 0.30637643 -0.15181611
0.39046398 0.6007633 0.064356394 -0.020545503 1.0575194 -0.14057957 0.15192749 2.1055129
0.07524987 -0.0752266 -0.28689033 0.0037844442 -0.0033348443 0.14237002 0.1427337 -0.15159361
0.23514247 0.31150347 -0.24471113 0.15491056 0.11992475 -0.14495024 0.069180295 0.00057951856
0.35697195 0.06593309 -0.033322956 0.022655016 0.06395894 -0.0041916734 0.005684523 -0.10398166
-0.21172641 0.09769084 7.5085406 -0.16148385 0.15502892 1.2755215 0.69143844 1.1210226
1.1892087 -0.30505988 0.1616701 0.2734681 0.78677183 0.84201616 1.9168463 0.98540753
-0.12594971 2.0558314 0.4191453 -0.40834126 0.21133012 -0.009805466 0.022361256 0.46227995
-0.0076732 0.007609078 0.3834683 0.026079604 -0.0051386403 0.4502742 -0.03149841 0.031662844
0.3020366 0.20402052 0.16607906 0.7125323 0.052732106 -0.029984502 0.91482526 0.004753239
0.0026768364 0.40993622 -0.17797591 -0.036079783 5.8944807 0.5321503 0.71829194 2.0294576
-0.015925128 0.08690797 0.092668444 0.44175336 -0.41735283 -0.0795309 0.08427231 0.06238447
2.0557935 0.055880535 0.09425775 0.58031183 0.01733499 -0.064417794 0.20141977 -0.003201917
0.0012730442 0.2996414 0.0036168867 -0.008768284 -0.19804084 -0.045291476 0.18088715 0.35381866
-0.045991004 0.044768896 0.42499277 -0.027775645 0.15462874 0.78647023 0.2413279 -0.22788139
0.21551976 0.03311538 -0.049343705 0.20677659 -0.042115845 0.014964132 1.1150343 -0.39732414
0.38561586 0.025298944 0.18572631 -0.1340333 0.5394177 0.03163325 -0.029405935 0.5777801
-0.78589517 0.962079 0.10746193 0.026199078 -0.003835178 0.37666485 -0.06638377 0.06869642
0.49017766 -0.6170573 -0.45505884 -0.3218855 0.029745325 0.17492151 0.109118186 0.016176436
0.009772352 1.1031928 0.23160127 -0.11152174 0.20309253 0.31976053 -0.01709346 -0.024811797
0.011998086 -0.028724393 0.3559571 0.026113756 -0.023976881 0.7652844 -0.049605392 0.26227936
0.48843825 0.06238295 -0.010191788 0.7024701 0.0038952825 0.00082994864 0.37318605 0.21931516
00000000: 92a2 abbc 5758 573d 2736 dc3f c823 b0bd
00000010: 0cee 673e 2f9a 233f 6564 093d f63b ff3d
00000020: ccdf b43f c48f a43d b2f2 5ebd ecd4 a53d
00000030: 74c0 fb3b 4096 23bb 7e67 33bd cb9f bf3e
00000040: 2eb8 88be a0b8 c9be 01e5 803e 220d 47be
00000050: dda8 063f 98c0 133d 47bb 96bd 8ebc 47be
00000060: d45d e5bd a56c 903b 7f35 113d 42db 9fbd
00000070: 2f91 293c be56 6abc 9f58 a8bc c00b 633d
00000080: 0e1d 243f 6bf8 193d e2e8 253c 9d97 943d
00000090: 7c0b 193c df74 0bbd 8723 dfbe 7ec2 423e
000000a0: 9454 533e e555 0d3e 1535 58bd 3619 23be
000000b0: cf1d b6bd 5a5a a8bd e673 743f d047 d43f
000000c0: 929c 82bc 72c6 03bb 119d 643e 3e9a acbd
000000d0: 2d85 de3c 628c 633e 44ec 7a3e 8bf6 82be
000000e0: 616e f83d 1c97 753e 829c 733f 02bf eb3e
000000f0: 4d31 e3bc b8c9 5f3c a38b bc3d 07b1 3cbc
00000100: 141c 113e ee0f 3c3e 02e1 10bc 4616 07bc
00000110: a1f4 6f3d fea9 b03b 2086 d9bb 74e4 6d3e
00000120: 5ced eebd 810b 403e 6f17 a93e ec30 a7bd
00000130: eb88 8d3d 3a76 4d3f 20fb 27bc c2b7 603c
00000140: 5d10 5f3e de2e 963f 9e78 213f 028f 463f
00000150: 98c6 f93d d4c1 d73d 5fdd 9c3e af75 1bbe
00000160: e5ea c73e a0cb 193f 49cd 833d 0b4f a8bc
00000170: cc5c 873f 17f4 0fbe e192 1b3e b9c0 0640
00000180: 9b1c 9a3d 6710 9abd 4ae3 92be 7004 783b
00000190: 678d 5abb 72c9 113e c828 123e 5b3b 1bbe
000001a0: 30c9 703e 627d 9f3e 8e95 7abe e0a0 1e3e
000001b0: 1b9b f53d d66d 14be 66ae 8d3d d5ea 173a
000001c0: 07c5 b63e ee07 873d a77d 08bd 0397 b93c
000001d0: e8fc 823d 4e5a 89bb 3c45 ba3b 56f4 d4bd
000001e0: cfce 58be 2312 c83d f745 f040 065c 25be
000001f0: e7bf 1e3e 4a44 a33f 1c02 313f ab7d 8f3f
00000200: fe37 983f cf30 9cbe d98c 253e 0304 8c3e
00000210: e169 493f 5f8e 573f 385b f53f ab43 7c3f
00000220: f6f8 00be be92 0340 369a d63e 1b12 d1be
00000230: ec66 583e 1ba7 20bc f42e b73c f5af ec3e
00000240: 786f fbbb 9355 f93b f555 c43e e5a4 d53c
00000250: 0a62 a8bb 578a e63e 7a04 01bd e6b0 013d
00000260: 8ba4 9a3e c1ea 503e a110 2a3e 8468 363f
00000270: 9ffd 573d 0fa2 f5bc fd31 6a3f 0fc1 9b3b
00000280: dd6d 2f3b 29e3 d13e 513f 36be 65c8 13bd
00000290: 969f bc40 013b 083f fbe1 373f a2e2 0140
000002a0: 6a75 82bc cefc b13d f4c8 bd3d 7f2d e23e
000002b0: 45af d5be 19e1 a2bd f696 ac3d dc86 7f3d
000002c0: 1f92 0340 fde2 643d 350a c13d 518f 143f
000002d0: 1c02 8e3c 7aed 83bd fc40 4e3e 41d7 51bb
000002e0: 46dc a63a 996a 993e 4a09 6d3b d9a8 0fbc
000002f0: 38cb 4abe 8e83 39bd 7b3a 393e b827 b53e
00000300: 1061 3cbd 975f 373d a798 d93e c089 e3bc
00000310: ff56 1e3e 1d56 493f a91e 773e bd59 69be
00000320: 36b1 5c3e fea3 073d a01c 4abd 3ebd 533e
00000330: aa81 2cbd 1e2c 753c 72b9 8e3f 126e cbbe
00000340: 716f c53e bb3f cf3c 0a2f 3e3e 0740 09be
00000350: 4717 0a3f de91 013d b7e4 f0bc 66e9 133f
00000360: 6d30 49bf cf4a 763f 0015 dc3d 739f d63c
00000370: 9c57 7bbb 37da c03e 37f4 87bd b5b0 8c3d
00000380: 91f8 fa3e 78f7 1dbf 79fd e8be 2dce a4be
00000390: 78ac f33c a01e 333e 5b79 df3d 7284 843c
000003a0: 371c 203c 6c35 8d3f e228 6d3e 8365 e4bd
000003b0: 7df7 4f3e a7b7 a33e 9507 8cbc 1c42 cbbc
000003c0: 9f93 443c 6b4f ebbc 0240 b63e 84ec d53c
000003d0: 2a6b c4bc aee9 433f 062f 4bbd 7b49 863e
000003e0: 9414 fa3e 4485 7f3d 75fb 26bc 15d5 333f
000003f0: ff47 7f3b e990 593a 3e12 bf3e 2794 603e

lstm.weight_hh_l0 f4 [256, 64]
-0.95628583 -0.6813415 0.29333213 -1.1823934 -0.2349406 1.9977485 -0.54976946 0.018849822
0.07717516 0.19433375 0.25307816 0.5884957 -1.9077952 -0.17993106 -0.60622513 0.27384323
1.0346779 1.371021 1.263414 0.43246898 -0.13577257 0.25456327 1.3910611 1.2968718
0.4219385 0.21063565 0.77130246 -1.3522416 0.2345911 -0.27078217 -0.43281832 0.9968456
1.6385359 -0.15925394 -0.22196023 0.27362934 -0.24372539 -0.105221555 -1.5133094 -1.2825428
-2.9339054 0.37922433 0.58351296 0.18762843 0.37396955 -0.91053474 -1.3520098 -0.52128154
0.008507101 1.0481229 0.64693487 -0.34342358 0.24845415 -0.48931164 -0.0026867324 -0.23898843
1.0798336 1.0049478 -0.46237296 0.43458825 0.07131933 -0.9850337 0.082585044 0.037265766
0.8349615 0.88045806 0.06690677 0.53532034 0.5192109 0.7753052 0.32029885 -1.1051302
2.6062276 -1.1546872 -0.6239007 -0.5326651 -0.5432918 -0.08025963 -0.7906644 -0.22068068
-1.083661 -0.4453944 0.35605156 0.48600075 1.9533818 -0.0321735 0.41568127 0.32047716
0.46524608 -0.05443543 -1.2114892 0.9457867 -0.14512864 0.34535953 0.14623228 0.50381684
2.8806176 1.6381487 -0.834906 -1.3876591 1.4904224 0.17430021 -0.8325955 1.1256244
1.2923678 -0.30409473 -0.84016657 0.40135244 -0.40313902 2.2671866 0.4220045 0.5240119
0.59516627 -0.082454585 -1.0436232 0.23504034 -0.2991801 1.251538 0.10564481 -0.091208145
-0.175551 -1.2017897 0.030025512 0.0125416415 0.03077621 0.23897286 -0.11592151 0.16755666
-1.0265793 -0.33014324 -0.06244374 0.8367176 -0.53953594 -0.7982072 -0.05071622 0.7106124
0.9564811 -0.1609659 0.86341035 0.83229655 2.3544672 -0.25610182 -0.37897006 0.89392406
2.8602085 1.4982474 -0.6658728 0.23925015 1.6504142 0.5117445 1.4912319 0.7069402
-0.13328977 -0.4227609 -1.0638778 0.7019762 0.12936217 -0.46390435 -0.34130824 -0.2512307
-0.23330182 -0.46226203 -0.64686 -0.35908607 0.25016186 -0.26211295 -1.5059294 -1.2309825
-1.3937504 -0.25089148 0.2790308 0.6703508 0.32718277 0.2267532 0.08620475 -0.866298
-0.18760563 1.0673431 0.11352382 0.008141806 -0.17889513 0.36083922 -0.69212264 -0.35397822
0.7108031 0.5989776 -0.07823769 0.8637617 -0.7965988 -1.630282 1.0362606 -0.12311912
0.31997165 1.5354286 -0.016474092 2.2838519 1.6944615 1.1815355 -0.06238371 -2.0994644
6.5396776 -1.5262107 0.81591654 -0.686372 -1.4270673 -0.08062756 -1.8134608 0.18813418
0.56208533 1.4121752 -1.9915861 4.013005 -0.06357215 -1.0288949 -1.1806118 -1.6779417
-1.3808718 -0.27889648 -0.5236819 -0.75107545 -0.14210995 -0.5562567 0.111162014 -0.5202241
-0.93121964 -1.7584276 0.5630337 1.9673156 0.50372887 1.7626513 0.65663666 -1.4042208
-0.40062934 -0.17159401 1.8891013 -0.45308456 0.32649228 -0.029395929 -4.794216 -0.14101817
-0.78080744 0.14405522 0.012312034 0.2999744 0.24026752 -0.76148814 -0.34004778 0.56425357
1.1036903 0.2974179 0.15244879 -1.478863 1.1417946 0.7964203 -4.6511946 0.7085296
00000000: 26cf 74bf 666c 2ebf a12f 963e ab58 97bf
00000010: 4594 70be 39b6 ff3f b1bd 0cbf f16a 9a3c
00000020: 030e 9e3d 6dff 463e 7693 813e a7a7 163f
00000030: a232 f4bf d93f 38be 9231 1bbf 2e35 8c3e
00000040: 5370 843f 9e7d af3f 8db7 a13f 936c dd3e
00000050: f707 0bbe 1e56 823e 4a0e b23f e5ff a53f
00000060: 5308 d83e dfb0 573e 1474 453f 4116 adbf
00000070: a638 703e f6a3 8abe 5d9a ddbe 4631 7f3f
00000080: 8bbb d13f 7713 23be 8b49 63be 2519 8c3e
00000090: 2693 79be 667e d7bd 1fb4 c1bf 5d2a a4bf
000000a0: 1bc5 3bc0 b129 c23e 1b61 153f ab21 403e
000000b0: f078 bf3e ce18 69bf a80e adbf b572 05bf
000000c0: 5e61 0b3c e428 863f 869d 253f 37d5 afbe
000000d0: c46a 7e3e 0e87 fabe e413 30bb 62b9 74be
000000e0: fd37 8a3f 21a2 803f 26bc ecbe 5a82 de3e
000000f0: de0f 923d 2b2b 7cbf 5922 a93d fda3 183d
00000100: 09c0 553f b365 613f 6b06 893d c10a 093f
00000110: 01eb 043f 677a 463f 36fe a33e e874 8dbf
00000120: 6fcc 2640 cacc 93bf f5b7 1fbf bd5c 08bf
00000130: 2c15 0bbf 295f a4bd fb68 4abf 1efa 61be
00000140: 67b5 8abf bc0a e4be 644c b63e 17d5 f83e
00000150: 6a08 fa3f 5cc8 03bd 2dd4 d43e 9515 a43e
00000160: bc34 ee3e aff7 5ebd 1412 9bbf 141f 723f
00000170: 9a9c 14be f7d2 b03e eabd 153e 24fa 003f
00000180: 0a5c 3840 dbae d13f 66bc 55bf d09e b1bf
00000190: 29c6 be3f c17b 323e fb24 55bf 7614 903f
000001a0: 4f6c a53f 4eb2 9bbe 2815 57bf 117e cd3e
000001b0: 3d68 cebe 9619 1140 f910 d83e a525 063f
000001c0: d15c 183f f3dd a8bd 7295 85bf 6aae 703e
000001d0: 222e 99be 6632 a03f 4e5c d83d 56cb babd
000001e0: a4c3 33be 3fd4 99bf 10f8 f53c 757b 4d3c
000001f0: 641e fc3c 4db5 743e 4268 edbd f993 2b3e
00000200: f366 83bf 8908 a9be 02c5 7fbd 2033 563f
00000210: 071f 0abf 4f57 4cbf d0bb 4fbd b2ea 353f
00000220: f2db 743f 3fd4 24be 7608 5d3f 6311 553f
00000230: 97af 1640 c71f 83be 5d08 c2be 35d8 643f
00000240: a80d 3740 92c6 bf3f a476 2abf fefd 743e
00000250: c640 d33f b001 033f b0e0 be3f 08fa 343f
00000260: 1d7d 08be 1e74 d8be 262d 88bf b6b4 333f
00000270: 8477 043e df84 edbe f4bf aebe 4fa1 80be
00000280: ace6 6ebe 9cad ecbe 9e98 25bf 21da b7be
00000290: 3715 803e ab33 86be 4bc2 c0bf d690 9dbf
000002a0: 6a66 b2bf d974 80be 20dd 8e3e 1c9c 2b3f
000002b0: 8084 a73e fe31 683e 1e8c b03d b5c5 5dbf
000002c0: b11b 40be b39e 883f 2d7f e83d 3665 053c
000002d0: 4930 37be ebbf b83e f32e 31bf a23c b5be
000002e0: 31f7 353f 9956 193f 153b a0bd 7d1f 5d3f
000002f0: e6ed 4bbf 15ad d0bf 30a4 843f e125 fcbd
00000300: 53d3 a33e ed88 c43f adf4 86bc a12a 1240
00000310: 1de4 d83f 8e3c 973f 1086 7fbd a05d 06c0
00000320: 0a45 d140 df5a c3bf e8df 503f 13b6 2fbf
00000330: 24aa b6bf 1020 a5bd 7c1f e8bf 3fa6 403e
00000340: d3e4 0f3f 28c2 b43f 4bec febf 896a 8040
00000350: 1e32 82bd d4b2 83bf 4a1e 97bf cbc6 d6bf
00000360: 68c0 b0bf 85cb 8ebe 0410 06bf 7b46 40bf
00000370: 4585 11be d766 0ebf e9a8 e33d 682d 05bf
00000380: 6964 6ebf 2814 e1bf fa22 103f ffd0 fb3f
00000390: 60f4 003f 8f9e e13f 5719 283f 82bd b3bf
000003a0: 4a1f cdbe 57b6 2fbe 12ce f13f b3fa e7be
000003b0: ff29 a73e bbcf f0bc 386a 99c0 1167 10be
000003c0: ffe2 47bf 3683 133e 6ab8 493c 3f96 993e
000003d0: b008 763e e3f0 42bf be1a aebe ec72 103f
000003e0: b945 8d3f 2947 983e 891b 1c3e 624b bdbf
000003f0: 5326 923f 33e2 4b3f 96d6 94c0 3262 353f

lstm.bias_ih_l0 f4 [256]
0.9142859 0.77731884 0.9436039 -0.070215054 0.88953614 -1.3355309 2.4480114 6.508205
-1.4503065 -1.6635543 -0.24632052 2.1739488 1.9808524 0.1662887 -0.40731156 1.0626428
-5.6279864 -3.4304554 -4.341522 0.8782389 -2.9472802 0.54909223 -1.1514913 -1.1638905
1.3728216 1.0686232 -0.74577624 0.8941048 0.20018813 1.1909649 1.4789425 0.15546589
-0.278131 -2.736594 0.00065271294 -0.4489745 -1.654224 0.65145016 -3.3933342 0.17861736
-0.5359279 0.8551931 1.0497086 0.2793372 1.7643248 1.1691142 -0.79590225 0.3840371
-0.13904116 0.61676687 -3.4245539 0.18953177 1.1666112 -2.0935898 1.3299339 1.4670866
0.29971772 -2.3956707 1.5275332 0.9848428 -1.6279262 -0.9978 1.6973335 0.49693164
-0.44434816 0.8093892 0.63087994 -0.4726747 0.08622389 0.69296664 0.9288216 0.3050395
0.27805302 -1.4300253 -0.56794965 -0.9162053 -0.08331576 -0.56597495 0.033317655 0.034023296
0.2235557 0.20050846 0.21583974 0.02052175 -0.09585182 -0.36892867 0.042795837 -0.12218315
0.070652075 -0.48580867 -0.52031565 0.07106934 0.70227146 -0.26146933 1.5600842 -1.2390932
-0.105274886 0.9732671 0.27545238 -0.8912374 1.004399 -0.05900416 -0.081032366 0.6087693
-1.0062615 0.030912757 0.93743044 -0.82947755 -0.090232275 -0.47209296 0.004150745 -0.39917699
-0.20177726 0.1514909 0.3874053 0.79280496 1.4442372 -0.51438445 -0.45294282 0.21300632
-0.62065774 0.044837043 0.6556742 1.0249863 -1.4809409 1.4961175 -0.10476786 0.15352026
-0.24710876 -0.35773066 1.6680727 -0.7842055 2.4515307 0.15149532 -1.1688848 -1.2358729
-2.2433736 -0.057544302 -0.22677195 -1.4393353 -0.9816215 -1.307283 -0.5622702 -1.2784804
0.4409166 1.2755628 -2.5631783 -0.93098384 -2.1279309 -1.1389307 -3.4434447 -0.49397418
-0.31479722 0.6478624 0.31640747 -1.0289125 1.0458883 1.5799387 -1.1611283 -3.0888326
0.11586767 1.2195309 1.9364153 0.7357693 -0.90836096 0.7932818 1.3167835 0.10367598
-2.0920062 1.1778164 -1.0263581 -0.4132687 -1.1619896 1.1101708 -0.15195413 2.5463607
2.76072 -2.7613544 -2.805596 -1.0388316 1.0654199 1.1106277 0.19775018 1.0516019
0.045450337 -2.219692 -1.6509463 -0.96851796 0.8650684 2.085974 -1.1768659 1.5625513
0.0068385373 -0.2010912 0.6122306 -0.9982178 0.22912078 -0.773284 1.0230477 1.1500785
-0.5255026 -0.37351307 1.6345193 0.87495667 -0.76629657 0.57898253 -0.9875597 -0.73216116
0.99023587 -1.7492127 -2.0601041 1.9470513 0.5713267 0.80813 1.3925264 1.8121339
-1.2535157 -0.07262906 -3.356234 -1.6566689 0.9073295 1.3919393 1.7787408 -0.20351192
0.22793987 -1.2435826 -0.94006264 0.46243766 0.38800642 0.0070807375 -1.5295783 -0.26766956
0.07327384 -0.45037386 -1.091724 0.6943668 0.071512304 -1.7332529 0.17480211 1.6294031
1.0255105 0.7787992 -0.4199028 1.7943891 -0.20844181 -1.5154836 -0.59829354 -0.9573476
0.56158686 -1.0563567 1.10329 0.90709764 -2.3925176 0.34360087 1.0379058 -1.3905554
00000000: a40e 6a3f 5efe 463f 0690 713f e9cc 8fbd
00000010: a4b8 633f adf2 aabf 38ac 1c40 3743 d040
00000020: a5a3 b9bf 59ef d4bf 723b 7cbe fa21 0b40
00000030: 928c fd3f 9647 2a3e 248b d0be ae04 883f
00000040: 7718 b4c0 958c 5bc0 c0ed 8ac0 44d4 603f
00000050: 3da0 3cc0 4f91 0c3f 1164 93bf 5dfa 94bf
00000060: 9eb8 af3f a5c8 883f 31eb 3ebf 0de4 643f
00000070: 1efe 4c3e 8a71 983f fd4d bd3f 7332 1f3e
00000080: 3067 8ebe 5b24 2fc0 d31a 2b3a fcdf e5be
00000090: 9dbd d3bf 70c5 263f 632c 59c0 78e7 363e
000000a0: 9232 09bf efed 5a3f da5c 863f 4905 8f3e
000000b0: 65d5 e13f 89a5 953f 40c0 4bbf 83a0 c43e
000000c0: ce60 0ebe 6fe4 1d3f e42b 5bc0 9e14 423e
000000d0: 8453 953f 60fd 05c0 463b aa3f 7ec9 bb3f
000000e0: 9a74 993e ab52 19c0 3586 c33f a81e 7c3f
000000f0: e35f d0bf d26f 7fbf 3942 d93f d36d fe3e
00000100: 9a81 e3be 2134 4f3f 5981 213f 6b02 f2be
00000110: 2796 b03d 4366 313f 41c7 6d3f 232e 9c3e
00000120: f75c 8e3e 120b b7bf 2665 11bf 6e8c 6abf
00000130: 74a1 aabd bce3 10bf 1878 083d 035c 0b3d
00000140: c9eb 643e 1752 4d3e 1805 5d3e 3b1d a83c
00000150: f64d c4bd 38e4 bcbe b04a 2f3d 293b fabd
00000160: 09b2 903d eabb f8be 6833 05bf cd8c 913d
00000170: 10c8 333f 4fdf 85be d7b0 c73f 9b9a 9ebf
00000180: 5c9a d7bd 0828 793f 1808 8d3e 2228 64bf
00000190: 2590 803f 59ae 71bd 4cf4 a5bd 4ed8 1b3f
000001a0: 2dcd 80bf c03c fd3c 71fb 6f3f a458 54bf
000001b0: b3cb b8bd 2bb6 f1be f902 883b ed60 ccbe
000001c0: b39e 4ebe 6e20 1b3e fd59 c63e 44f5 4a3f
000001d0: c4dc b83f b3ae 03bf 1fe8 e7be 541e 5a3e
000001e0: 6de3 1ebf 0ca7 373d 44da 273f c032 833f
000001f0: 798f bdbf c780 bf3f 8890 d6bd 6a34 1d3e
00000200: 140a 7dbe 7928 b7be 6883 d53f b1c1 48bf
00000210: e1e5 1c40 9721 1b3e 049e 95bf 1531 9ebf
00000220: 6f93 0fc0 93b3 6bbd e836 68be 243c b8bf
00000230: 8c4b 7bbf 0d55 a7bf f1f0 0fbf 3fa5 a3bf
00000240: d2bf e13e a445 a33f 1d0b 24c0 f554 6ebf
00000250: 0530 08c0 7bc8 91bf 6661 5cc0 2fea fcbe
00000260: 1a2d a1be 4fda 253f 2900 a23e 68b3 83bf
00000270: abdf 853f 6e3b ca3f da9f 94bf 6faf 45c0
00000280: 074c ed3d 9719 9c3f 75dc f73f 605b 3c3f
00000290: 588a 68bf 8414 4b3f 5d8c a83f 1254 d43d
000002a0: 6ee3 05c0 b0c2 963f b45f 83bf f497 d3be
000002b0: 13bc 94bf 141a 8e3f dd99 1bbe 93f7 2240
000002c0: a3af 3040 08ba 30c0 e38e 33c0 6ff8 84bf
000002d0: ae5f 883f 0c29 8e3f 067f 4a3e e49a 863f
000002e0: 222a 3a3d 6f0f 0ec0 3552 d3bf cbf0 77bf
000002f0: 1f75 5d3f 9980 0540 8ba3 96bf ae01 c83f
00000300: cf15 e03b daea 4dbe 25bb 1c3f 348b 7fbf
00000310: a39e 6a3e f1f5 45bf 3af3 823f c635 933f
00000320: 5787 06bf 1b3d bfbe ee37 d13f 29fd 5f3f
00000330: 032c 44bf 3338 143f b6d0 7cbf ea6e 3bbf
00000340: 1980 7d3f 34e6 dfbf bfd8 03c0 fa38 f93f
00000350: 7742 123f 9ce1 4e3f 4e3e b23f 01f4 e73f
00000360: 3473 a0bf 8bbe 94bd 8acc 56c0 ba0d d4bf
00000370: bf46 683f 112b b23f c7ad e33f 6e65 50be
00000380: 1269 693e b72d 9fbf f2a7 70bf a1c4 ec3e
00000390: c7a8 c63e 8805 e83b 39c9 c3bf fc0b 89be
000003a0: 9810 963d 6797 e6be 9dbd 8bbf 06c2 313f
000003b0: 0b75 923d 3bdb ddbf 53ff 323e 4890 d03f
000003c0: ee43 833f 625f 473f 80fd d6be 8bae e53f
000003d0: c571 55be 5efb c1bf c429 19bf bb14 75bf
000003e0: 28c4 0f3f b236 87bf 9b38 8d3f 8d37 683f
000003f0: 021f 19c0 74ec af3e 19da 843f b8fd b1bf

lstm.bias_hh_l0 f4 [256]
0.94143695 0.6535237 0.9333492 -0.12124926 0.94834584 -1.4626216 2.6319678 6.3835425
-1.3472083 -1.6899718 -0.36719623 2.2109666 2.0864463 0.020424102 -0.3101724 0.9491924
-5.651117 -3.4536293 -4.275284 1.0568515 -2.9515254 0.53983235 -1.2170869 -1.2184597
1.3661308 1.1065875 -0.7201966 0.8412767 0.3965346 1.1151698 1.4691061 0.2667857
-0.4059557 -2.7741597 0.019061781 -0.3878153 -1.6319116 0.68066525 -3.4505072 0.043771267
-0.47708988 0.7812975 1.1634703 0.41966784 1.8386325 1.232433 -0.86730504 0.506075
-0.30339184 0.44675788 -3.532678 0.15249509 1.051116 -2.1091654 1.3333248 1.394597
0.23827928 -2.3366694 1.4853163 0.89021367 -1.6565686 -1.0030103 1.7477546 0.6023689
-0.5832798 0.8052467 0.65925884 -0.5250951 0.061422814 0.71214086 0.86249065 0.41148382
0.31780884 -1.3062861 -0.4070831 -0.9117765 -0.062384997 -0.5109165 -0.06854082 -0.06858245
0.23564212 0.12609755 0.08550942 -0.005668697 0.017397178 -0.37626335 -0.042563427 -0.025556276
-0.01743085 -0.27694818 -0.5218707 0.07831478 0.86158985 -0.0624466 1.3509158 -1.1963667
-0.050919715 1.0307829 0.080467656 -0.89250636 0.9788643 -0.2185092 -0.25969106 0.73311174
-0.9525633 0.23772332 1.1166587 -0.9029421 -0.11306741 -0.5911661 -0.042197015 -0.45960844
-0.41929755 0.1744982 0.5032044 0.75188357 1.6631024 -0.5134405 -0.40618882 0.2652345
-0.47371915 0.12360391 0.6771239 1.076506 -1.3112204 1.4781915 -0.28015488 0.049874485
-0.40486825 -0.368113 1.648086 -0.6314242 2.3708375 0.37126923 -1.3409408 -1.1335003
-2.2667718 -0.09492627 -0.087187 -1.4434125 -0.99436235 -1.3860972 -0.53890073 -1.1915647
0.29068387 1.2118903 -2.6177955 -1.0444589 -2.227583 -1.2698305 -3.6352162 -0.56331265
-0.24997136 0.7931641 0.19253878 -1.031755 1.1709396 1.4137129 -1.3852648 -3.115238
0.20446293 1.1614946 1.8683034 0.61203164 -0.83658856 0.80417335 1.3707039 0.15397635
-2.190951 1.0765735 -0.98390543 -0.3053318 -1.259602 0.8854011 -0.30327788 2.5345943
2.8706884 -2.7366545 -2.7688038 -1.060099 1.0167514 1.0083722 0.038603015 1.1049365
0.19559328 -2.142134 -1.6463265 -0.7846053 0.93691486 2.0865862 -1.1466842 1.668368
-0.04505796 -0.1642569 0.77655333 -1.0878 0.09978219 -0.76616573 1.1906762 1.2918184
-0.5146279 -0.4787861 1.5094942 0.8416182 -0.78975636 0.49134237 -1.0647225 -0.8187332
0.96995896 -1.8966855 -2.0312471 1.9591417 0.49701372 0.85765386 1.343415 1.829373
-1.3087435 -0.122688144 -3.4819787 -1.7663305 0.93419856 1.4507964 1.6436763 -0.28585237
0.09618408 -1.2041191 -0.7388205 0.4345094 0.44014558 0.091760986 -1.5970801 -0.16479889
0.2158925 -0.63238263 -1.0934328 0.5869532 0.19313562 -1.7820518 -0.028021459 1.7457507
1.0556858 0.639083 -0.65136135 1.7756553 -0.2707084 -1.465144 -0.65748185 -0.90865785
0.48702595 -1.2150457 1.2639422 0.7194799 -2.4378211 0.20918779 1.0878093 -1.2681236
00000000: 0302 713f 544d 273f f9ef 6e3f 8851 f8bd
00000010: cbc6 723f 2f37 bbbf 2972 2840 fb45 cc40
00000020: 5271 acbf ff50 d8bf 2501 bcbe 7a80 0d40
00000030: 5688 0540 7250 a73c ebce 9ebe 46fe 723f
00000040: f3d5 b4c0 4308 5dc0 20cf 88c0 e946 873f
00000050: cbe5 3cc0 7432 0a3f 81c9 9bbf 7df6 9bbf
00000060: 60dd ae3f a9a4 8d3f ce5e 38bf e95d 573f
00000070: 9506 cb3e e2bd 8e3f ab0b bc3f 2398 883e
00000080: 6dd9 cfbe d58b 31c0 7427 9c3c ba8f c6be
00000090: 7be2 d0bf 1440 2e3f 1cd5 5cc0 8049 333d
000000a0: 2045 f4be 1d03 483f 98ec 943f b4de d63e
000000b0: 4f58 eb3f 5dc0 9d3f b407 5ebf 228e 013f
000000c0: 2d56 9bbe 73bd e43e 6517 62c0 ac27 1c3e
000000d0: f88a 863f 91fc 06c0 63aa aa3f 2882 b23f
000000e0: 7cff 733e fe8b 15c0 d81e be3f 0be5 633f
000000f0: 710a d4bf a462 80bf 6cb6 df3f d934 1a3f
00000100: d351 15bf a624 4e3f 30c5 283f a26c 06bf
00000110: 7d96 7b3d dd4e 363f 30cc 5c3f 02ae d23e
00000120: d7b7 a23e 6234 a7bf 326d d0be 2f6a 69bf
00000130: 6987 7fbd 6ccb 02bf 215f 8cbd f574 8cbd
00000140: 2b4c 713e b71f 013e 901f af3d 7ac0 b9bb
00000150: 8784 8e3c 97a5 c0be fd56 2ebd 655b d1bc
00000160: 24cb 8ebc 27cc 8dbe 5199 05bf 8063 a03d
00000170: 2791 5c3f 02c8 7fbd cfea ac3f 8b22 99bf
00000180: 3191 50bd b2f0 833f 3acc a43d 4c7b 64bf
00000190: da96 7a3f e0c0 5fbe 3af6 84be 36ad 3b3f
000001a0: 30db 73bf be6d 733e acee 8e3f 3727 67bf
000001b0: e38f e7bd a956 17bf c7d6 2cbd cc51 ebbe
000001c0: 2bae d6be a8af 323e 01d2 003f 717b 403f
000001d0: 8ae0 d43f d670 03bf fbf7 cfbe d1cc 873e
000001e0: 518b f2be 0c24 fd3d fe57 2d3f f3ca 893f
000001f0: 12d6 a7bf 6135 bd3f 7670 8fbe 3049 4c3d
00000200: e44a cfbe 4f79 bcbe 7bf4 d23f 04a5 21bf
00000210: cdbb 1740 0017 be3e f3a3 abbf 8a16 91bf
00000220: ca12 11c0 b468 c2bd 198f b2bd bec1 b8bf
00000230: 888e 7ebf a26b b1bf 66f5 09bf 3185 98bf
00000240: 84d4 943e 391f 9b3f f689 27c0 d4b0 85bf
00000250: b890 0ec0 ce89 a2bf 62a7 68c0 4235 10bf
00000260: 7ef8 7fbe cd0c 4b3f e328 453e 8c10 84bf
00000270: 59e1 953f 8bf4 b43f 5b50 b1bf 0f60 47c0
00000280: bb5e 513e dbab 943f 9124 ef3f 1bae 1c3f
00000290: ab2a 56bf 4ede 4d3f 3a73 af3f faab 1d3e
000002a0: 8b38 0cc0 29cd 893f 3ae1 7bbf 7354 9cbe
000002b0: a33a a1bf a6a9 623f 3d47 9bbe cb36 2240
000002c0: 5cb9 3740 5925 2fc0 1534 31c0 53b1 87bf
000002d0: e924 823f 5712 813f 321e 1e3d 8f6e 8d3f
000002e0: 9b49 483e b918 09c0 d4ba d2bf e5db 48bf
000002f0: a7d9 6f3f a18a 0540 8cc6 92bf 158d d53f
00000300: b28e 38bd f632 28be 33cc 463f 083d 8bbf
00000310: 9b5a cc3d 7023 44bf 1468 983f 4e5a a53f
00000320: a7be 03bf 7423 f5be 1b37 c13f 4a74 573f
00000330: 792d 4abf 3a91 fb3e d448 88bf 8098 51bf
00000340: 3b4f 783f 97c6 f2bf f4ff 01c0 28c5 fa3f
00000350: 9578 fe3e 348f 5b3f 06f5 ab3f e528 ea3f
00000360: e884 a7bf ec43 fbbd bdd8 5ec0 1e17 e2bf
00000370: a327 6f3f b2b3 b93f fc63 d23f 3e5b 92be
00000380: 29fc c43d 9320 9abf 5723 3dbf 0478 de3e
00000390: c35a e13e 2fed bb3d 1f6d ccbf 0ac1 28be
000003a0: ec12 5d3e d4e3 21bf 9bf5 8bbf 9142 163f
000003b0: 58c5 453e 461a e4bf 428d e5bc c274 df3f
000003c0: b620 873f f29a 233f 9ebf 26bf ac48 e33f
000003d0: 4b9a 8abe d789 bbbf bb50 28bf cd9d 68bf
000003e0: 775b f93e 9e86 9bbf dcc8 a13f d62f 383f
000003f0: 4305 1cc0 5335 563e 563d 8b3f e051 a2bf

fc.weight f4 [3, 64]
0.42838573 -2.5322196 1.6892626 -13.429761 -5.381611 6.12569 -2.6859899 -4.7738113
7.2250934 3.1387184 -3.0141628 0.049032222 -2.3796418 -2.7186491 6.560013 -1.1302212
-12.043033 15.40985 3.8002772 7.8755374 9.022053 -3.2969556 3.5025096 -4.937739
-2.621018 2.9322195 8.917296 -7.1875396 2.588895 -7.6233234 -3.0304492 2.5277026
2.9225848 4.4049797 0.76247144 2.5387547 -1.3309486 -5.9250984 -6.1565995 -6.875908
-0.31137925 3.360274 0.757932 -4.22599 -3.9779794 1.3303739 -5.8937206 3.138908
4.850957 1.0162735 -4.9474764 -2.7353613 2.5422883 3.3567579 8.198557 7.109559
3.2572813 3.1617796 -2.5168917 0.851718 10.795391 -4.2102456 -3.6468427 3.2429824
3.7777479 -1.5651325 2.0454082 -2.0886252 -7.158157 -1.3570256 -2.5302985 0.83855253
-3.4895341 4.5482354 -0.07310921 -4.2030907 -6.479183 -2.2709517 4.734739 -5.9595027
-1.2836121 -0.8534923 7.62542 -1.9707035 7.2412624 0.37714702 2.8652015 -8.418924
-1.2750058 2.1581233 16.483591 -7.770054 2.4255776 0.35078958 -2.4905417 3.092289
0.5645049 0.95626634 4.0264387 1.1110983 -0.9180634 7.3782525 -9.533573 5.8924904
5.0287604 1.5980743 -7.759732 -0.0953632 -9.112417 8.619064 3.751084 -0.85947335
0.12325743 -0.63860947 -0.5548155 -2.3384378 4.3748245 4.4883237 -6.333508 10.944162
-2.9482017 9.7141285 -2.1053488 -3.9138935 5.4968696 1.0981143 1.4991603 -0.6007337
1.9168633 -2.6971183 2.090428 8.449218 -4.928268 7.111601 -1.8983119 -0.64985913
8.794597 -1.1623354 -2.1899514 -0.4576098 -5.02013 -2.3000236 7.9194813 -3.5370274
-12.891518 14.967495 3.5235507 7.751809 3.6641233 -2.426646 3.5034382 2.6635358
-3.9471064 1.9690123 -5.5904903 -7.0783143 2.4360516 -8.304375 -2.4004211 -1.9386885
3.7886248 4.388026 2.498885 3.4428692 -2.7680058 9.5315695 -1.9504517 -2.33628
0.9270797 3.912473 -3.9115262 -2.2831879 -3.6959875 5.40219 -6.3727946 2.841057
5.775151 1.2834294 -4.090343 -2.1759903 1.989358 2.345255 8.273874 7.4772077
-1.0388343 3.175101 -2.22497 -0.37828112 9.06681 -4.013126 -2.1190584 8.020256
00000000: 6055 db3e e30f 22c0 c239 d83f 4de0 56c1
00000010: 2836 acc0 a705 c440 42e7 2bc0 10c3 98c0
00000020: f733 e740 c3e0 4840 0be8 40c0 03d6 483d
00000030: 0d4c 18c0 59fe 2dc0 a0eb d140 17ab 90bf
00000040: 43b0 40c1 bf8e 7641 be37 7340 6704 fc40
00000050: 545a 1041 5201 53c0 1e29 6040 f501 9ec0
00000060: c2be 27c0 7ca9 3b40 3fad 0e41 5300 e6c0
00000070: 75b0 2540 44f2 f3c0 e1f2 41c0 e1c5 2140
00000080: a10b 3b40 98f5 8c40 5431 433f f57a 2240
00000090: 865c aabf 689a bdc0 dd02 c5c0 7007 dcc0
000000a0: 1a6d 9fbe bb0e 5740 d507 423f 4f3b 87c0
000000b0: 3797 7ec0 b149 aa3f 5c99 bcc0 dee3 4840
000000c0: 0a3b 9b40 4015 823f ba51 9ec0 2910 2fc0
000000d0: dab4 2240 1fd5 5640 4a2d 0341 8281 e340
000000e0: 4c77 5040 995a 4a40 c114 21c0 310a 5a3f
000000f0: ecb9 2c41 55ba 86c0 df65 69c0 068d 4f40
00000100: 9fc6 7140 4356 c8bf f8e7 0240 09ac 05c0
00000110: 9f0f e5c0 04b3 adbf 69f0 21c0 61ab 563f
00000120: 8754 5fc0 258b 9140 48ba 95bd b87f 86c0
00000130: 7855 cfc0 4657 11c0 fb82 9740 3fb4 bec0
00000140: 674d a4bf 797e 5abf 7103 f440 0340 fcbf
00000150: 6cb8 e740 6a19 c13e 765f 3740 eab3 06c1
00000160: 6433 a3bf b11e 0a40 65de 8341 48a4 f8c0
00000170: aa3c 1b40 b19a b33e 0965 1fc0 10e8 4540
00000180: 6583 103f dfcd 743f 96d8 8040 7838 8e3f
00000190: 3406 6bbf a51a ec40 8489 18c1 488f bc40
000001a0: 9beb a040 b38d cc3f b94f f8c0 c84d c3bd
000001b0: 76cc 11c1 b0e7 0941 c311 7040 7206 5cbf
000001c0: 646e fc3d e97b 23bf 6308 0ebf f7a8 15c0
000001d0: 90fe 8b40 59a0 8f40 19ac cac0 4a1b 2f41
000001e0: 56af 3cc0 126d 1b41 09be 06c0 3b7d 7ac0
000001f0: 5be6 af40 028f 8c3f 7ce4 bf3f afc9 19bf
00000200: c75b f53f 969d 2cc0 93c9 0540 ff2f 0741
00000210: 5fb4 9dc0 3c92 e340 e2fb f2bf 2b5d 26bf
00000220: abb6 0c41 68c7 94bf 2a28 0cc0 d54b eabe
00000230: e8a4 a0c0 9633 13c0 646c fd40 a85e 62c0
00000240: a843 4ec1 dc7a 6f41 db81 6140 d20e f840
00000250: ff80 6a40 2b4e 1bc0 5538 6040 5f77 2a40
00000260: 649d 7cc0 9808 fc3f 4ce5 b2c0 8d81 e2c0
00000270: 45e8 1b40 b8de 04c1 80a0 19c0 f226 f8bf
00000280: d478 7240 b66a 8c40 bbed 1f40 f857 5c40
00000290: 0227 31c0 4f81 1841 67a8 f9bf 9d85 15c0
000002a0: 1855 6d3f f565 7a40 7256 7ac0 c01f 12c0
000002b0: 0f8b 6cc0 bede ac40 efed cbc0 e1d3 3540
000002c0: 09ce b840 6a47 a43f 17e4 82c0 6d43 0bc0
000002d0: 48a3 fe3f a818 1640 ca61 0441 4945 ef40
000002e0: 86f8 84bf db34 4b40 e965 0ec0 10ae c1be
000002f0: a711 1141 876b 80c0 a79e 07c0 f852 0041

fc.bias f4 [3]
2.605229 2.1651623 1.9680156
00000000: 12bc 2640 0592 0a40 efe7 fb3f
