models/risk_multiclass_model.pth (torch, 6141 bytes, 6 tensors)

net.0.weight f4 [32, 3]
000000 39 90 d5 be f7 e2 58 3e 9d af f2 be ad ad b2 3e
       -0.41711596 0.2118033 -0.47399607 0.3489813
000010 ed cc 5e bd cc 23 04 3e e6 47 bb be 9c 2d a5 bd
       -0.05439465 0.1290428 -0.36578292 -0.0806534
000020 78 b3 c5 be 7e 1b 2f be ef 3c a2 be 56 32 a6 3e
       -0.38613486 -0.17100331 -0.31687114 0.32460278
000030 38 24 8a be d5 d6 0a 3f 3f 6b 07 bf 0d e7 32 3e
       -0.26980758 0.5423406 -0.5289802 0.17470951
000040 e1 58 be 3d 8c 0d 83 be 67 01 9d 3c 60 17 0f 3f
       0.09294296 -0.25596273 0.019165708 0.5589504
000050 8c 1d 81 be f6 f8 bc be 78 82 e1 be 21 61 07 bf
       -0.25217855 -0.36908692 -0.44044852 -0.5288258
000060 49 7d 00 bf ef 64 45 be 26 a8 0a 3f e4 54 2b be
       -0.5019117 -0.19276784 0.54162824 -0.16731602
000070 91 e2 09 3e 8b a2 03 bf d0 4d 00 3f 9e d9 e5 be
       0.13465334 -0.51419896 0.5011873 -0.4489259
000080 b0 e5 d8 bd d6 2a fa 3e 57 5e 44 3c d4 56 02 3f
       -0.105906844 0.48860806 0.011985383 0.5091374
000090 48 c0 0e 3f 9f cc 55 bd b8 04 e7 3e a8 26 03 bf
       0.5576215 -0.052197095 0.45120788 -0.5123086
0000a0 d2 d1 76 3e bf b7 11 3d 7a f5 61 be b6 e0 d0 be
       0.24103478 0.035575625 -0.22066298 -0.4079644
0000b0 98 73 f0 be 69 5f 03 3f 74 43 9a 3d 11 ec 93 be
       -0.4696319 0.5131746 0.07532397 -0.28891042
0000c0 26 b0 cf be 65 33 d2 3e c6 2b bc 3e b1 4f 5b 3e
       -0.40564078 0.41054836 0.36752146 0.21417119
0000d0 0e 11 0e 3f da 3c 97 be a4 71 e2 bd 01 fc fc be
       0.55494773 -0.29538614 -0.110568315 -0.49411014
0000e0 c4 ab b9 bd 0f e4 e4 be 12 00 01 be a8 3a 82 3e
       -0.09065965 -0.44705245 -0.12597683 0.25435376
0000f0 f3 28 ae 3e 3d c0 81 3e a2 70 cf 3e 76 f8 00 3f
       0.34015617 0.2534198 0.4051562 0.5037912
000100 cb 26 0e be 60 e0 86 3e 2a 76 f7 bd 97 75 82 3d
       -0.13881986 0.2634306 -0.12083085 0.06370085
000110 b5 54 b6 be 42 2e cc 3e b6 03 4f be ac 7f b9 3e
       -0.356115 0.39879042 -0.2021626 0.36230218
000120 df ca c4 3e f5 78 c9 3e 90 7d 54 bd 40 92 a2 3c
       0.38436028 0.39350095 -0.05187756 0.019845128
000130 8a 62 08 bf 58 e3 ae bd a1 86 92 be b6 34 cc bd
       -0.5327536 -0.08539456 -0.2861834 -0.09970991
000140 32 83 2c 3e 9d 67 d8 be 39 7a cf 3d 80 b9 db 3e
       0.16846922 -0.4226655 0.10130734 0.42914963
000150 dd 30 11 3f f8 77 8e be 4c 3c a3 be a9 10 6c 3e
       0.56715184 -0.27825904 -0.3188194 0.2305323
000160 3f 5c b8 be 6f b1 58 be 11 3e aa 3e 1d 47 07 be
       -0.36007878 -0.21161436 0.33250478 -0.13210721
000170 94 2e 0b be a7 25 e2 bc 24 ac 21 3f 3a b3 a0 bd
       -0.13591987 -0.027605845 0.6315329 -0.07846685

net.0.bias f4 [32]
000000 d6 ac 69 3e 22 fa df be 9c 8e da be a2 1e 7c bd
       0.22819838 -0.43745524 -0.42686927 -0.06155265
000010 c7 5f f8 3e 08 d3 8b 3e da 0c 02 be ce 08 10 3f
       0.48510572 0.27309442 -0.12700215 0.56263435
000020 13 8c a9 be dc dc 7a bd a4 a1 a3 3d ee b6 82 be
       -0.3311468 -0.061245784 0.07989815 -0.2553019
000030 c1 b1 f8 3c db 38 06 3f 38 f5 90 3d ec 60 0e be
       0.030358197 0.52430505 0.07078022 -0.1390416
000040 bb 12 9d 3e c6 ad 0a 3f 00 98 67 bb 1b 8c ec be
       0.30678353 0.5417141 -0.0035338402 -0.46200642
000050 7d e0 0d 3e 17 0e a6 3e c8 df bf bb 0e cd 9c be
       0.13855167 0.32432625 -0.005855534 -0.30625194
000060 a3 b3 0d 3e 00 a6 3e 3b c9 00 fb be 4a db 09 3f
       0.13838057 0.0029090643 -0.49024037 0.53850234
000070 b7 43 e9 be c7 9d 14 bf 82 fd 84 be 08 51 a1 3d
       -0.45559475 -0.5805325 -0.2597466 0.078767836

net.2.weight f4 [16, 32]
000000 02 83 52 bd b7 e4 28 bd 80 f8 cb ba dc 5d 17 3e
       -0.05139447 -0.041233744 -0.001556173 0.14781898
000010 e1 6a 55 bd dd 24 89 bd 48 c0 3c 3e d4 80 1a be
       -0.05210388 -0.06696484 0.18432724 -0.15088207
000020 6b 90 a5 bd 4d 1a 0b 3e ab 8f 33 be c8 c8 13 3e
       -0.08084186 0.13584252 -0.17535274 0.1443206
000030 b3 44 8e 3d 4d 48 29 bd 60 58 bd 3b 09 b9 a1 bd
       0.06946697 -0.041328717 0.0057783574 -0.07896621
000040 a6 e2 de 3d 34 59 36 bd d6 8b d1 3d eb a0 73 bd
       0.108830735 -0.044518664 0.1023175 -0.059479635
000050 35 ee 05 be b0 29 50 3d d1 3b 27 be ed 8b 35 3e
       -0.1307915 0.050821006 -0.16331412 0.17729159
000060 b3 77 1d 3d 47 1b 0c 3e 7e f4 47 be 4c 22 97 bd
       0.038444232 0.1368228 -0.1952686 -0.073795885
000070 6b a2 04 be da 80 40 3d f6 05 af 3d b0 78 03 3e
       -0.12952583 0.046997882 0.08546059 0.12839007
000080 08 58 83 bc ab 94 1b 3e 60 89 32 bd 3e 77 33 3d
       -0.016033188 0.15193431 -0.043588042 0.04381489
000090 63 94 03 3e ec 71 4c bd 8e 6b 92 3c fa 1d c7 3d
       0.12849574 -0.049913332 0.017873552 0.097225145
0000a0 0a 0f c8 bd 9c af 01 be 08 fd 72 bd d9 22 ef 3d
       -0.097684935 -0.12664646 -0.05932334 0.116765685
0000b0 52 f1 b2 bd f3 66 db bd b1 f8 9e bd 91 8b 4a bd
       -0.087374344 -0.107129954 -0.07762278 -0.049449507
0000c0 18 0f 79 bd 27 04 b8 3d 90 dd 26 bc ad b4 c2 bd
       -0.06080541 0.08985167 -0.010184661 -0.095071174
0000d0 d8 df 1d bd 0d 21 87 bd ab 1d bd bd c7 50 11 be
       -0.038543552 -0.06598101 -0.09234174 -0.1419097
0000e0 a3 71 c9 bc 44 f5 59 bd 73 8a 9e bd 30 27 98 3d
       -0.024590319 -0.05321242 -0.07741251 0.074293494
0000f0 75 89 a7 3b d1 c9 16 3e e7 58 42 3d 2c d7 71 3d
       0.0051128217 0.14725424 0.047448065 0.059043095
000100 77 38 de bd 91 f0 4c 3d 70 ea 13 3c 06 e6 3a 3e
       -0.108506136 0.05003411 0.009028062 0.1825181
000110 5b 54 37 be be 58 65 bd bd 81 4c 3c 30 64 83 3d
       -0.17903273 -0.055992834 0.012482104 0.064155936
000120 b0 81 d9 3c 84 98 e2 3c ae 7c ac 3d 9a 28 38 bd
       0.026551098 0.027660616 0.08422218 -0.044960596
000130 51 1a a5 bd 88 c1 dc bc d0 a1 50 3d 6c 64 cc 3d
       -0.0806166 -0.026947752 0.050935566 0.099800915
000140 64 6a 2b be a1 ef 47 bd 44 68 3f 3d 63 13 1b 3e
       -0.16739804 -0.048812512 0.046730295 0.15144114
000150 b5 4b 9e 3c 3f f0 20 be 86 c3 c5 3d e1 96 9c bd
       0.01932321 -0.15716647 0.09656434 -0.07645965
000160 c8 b8 e0 3d 3e 99 f7 3d 6a 33 1d be be f1 78 bd
       0.10972744 0.120897755 -0.15351644 -0.06077742
000170 29 fc 08 3e 7f 17 08 bd 8b 0b b5 3d fc 02 de bd
       0.13377441 -0.033225533 0.08840092 -0.10840413
000180 bb 15 0c 3d d9 bb e3 bd 57 dc 07 be 16 e4 53 3d
       0.03420041 -0.111198135 -0.13267647 0.05173119
000190 57 fb af 3c d7 7a 34 3e 68 49 6c bc 88 3a 9e bc
       0.021482153 0.17624985 -0.014421798 -0.01931502
0001a0 17 92 b0 bd d2 ae ca 3d c5 bb b6 3e 15 80 05 be
       -0.086216144 0.098966256 0.35690132 -0.1303714
0001b0 15 17 1b 3e 2f e1 6b 3d 18 b5 cb 3c 1b ee 31 3e
       0.15145524 0.0575878 0.024866626 0.17375986
0001c0 72 b6 b5 bc bf e4 c3 3c 38 c6 07 be 84 ab f6 bc
       -0.022181723 0.023912786 -0.13259208 -0.030111082
0001d0 5f 22 ae 3d 27 88 1a bc 20 eb 8e bb 83 f5 1a 3e
       0.085026495 -0.009431875 -0.004361525 0.15132718
0001e0 6b 7b 13 be 74 9f 9e bd 5a 3c fc bc 4f 1d a7 bd
       -0.14402549 -0.07745257 -0.030790497 -0.08159887
0001f0 67 68 25 3e 7d 8d fa 3d c1 ee 51 3e 00 fc 2f be
       0.16153108 0.12234018 0.20501234 -0.17185974
000200 30 b0 9d bd d1 99 51 3d 36 46 83 3d b0 bd b4 3c
       -0.07699621 0.05117208 0.06409876 0.022063106
000210 ab 2d 1e 3e 05 f2 a7 3d c3 83 a4 bd b9 b5 11 3e
       0.15447108 0.082004584 -0.08032944 0.14229478
000220 c8 0f fb bd fa 8e 25 3d 16 21 89 3e 19 dd 25 bd
       -0.122588694 0.040419556 0.26783055 -0.04049406
000230 3a 9a 1f 3c 44 8d 0a 3e 04 44 e7 bd fb 7b 21 bd
       0.00974136 0.13530451 -0.1129227 -0.039424878
000240 2a 20 63 bd 41 70 a2 3b 64 ee 8c 3d 2b 74 e9 3c
       -0.055450596 0.0049572294 0.06881407 0.028497776
000250 a5 88 92 bd 42 3d be 3d dc bb e1 3d a2 8d 13 3e
       -0.07154969 0.09289028 0.110221595 0.14409497
000260 d9 5d 0d 3c 8a 9b 27 be 67 fc 71 be 46 ca 15 3e
       0.008628332 -0.16367927 -0.2363144 0.14627942
000270 eb 98 36 3e 17 06 02 be 08 7d e4 3d 1c 9a 43 bd
       0.17831771 -0.12697636 0.1115666 -0.047754392
000280 4a 0c 4c bd dd 63 6e 3c 6b 4b 03 3e 95 0a 89 3c
       -0.049816407 0.014550176 0.12821738 0.016728679
000290 61 e2 a3 3d 58 cd ed 3c 6e 42 8a bd ca 63 9e bd
       0.08002163 0.02902858 -0.06750952 -0.07733877
0002a0 c6 11 c2 3d 2b f5 59 bd bf 00 be 3e 69 7b 73 3d
       0.09476046 -0.053212326 0.37109944 0.059443865
0002b0 d0 66 de 3d ae aa 2b 3d 10 94 1a 3c d5 00 32 3e
       0.10859454 0.04191082 0.009434715 0.1738313
0002c0 53 5b 67 3d 53 b6 b4 bc 25 bd 0c 3e db b3 d0 3d
       0.056483578 -0.022059595 0.13744028 0.10190555
0002d0 61 42 34 be 67 72 1b be 60 f2 33 3d af 20 86 bb
       -0.17603447 -0.1518036 0.04393232 -0.0040932517
0002e0 6f 35 14 3d fa b7 a2 3d 68 d2 0a be 9c 8d 98 3b
       0.03618377 0.07945247 -0.13556826 0.004655553
0002f0 6a 54 f4 3d 1e 65 21 3e c1 c4 42 3e 01 e0 16 be
       0.11930163 0.1576123 0.19020368 -0.14733888
000300 b1 32 3a be 1b 12 62 bd dc 7f 11 bd 4c 56 7a 3d
       -0.181834 -0.055193048 -0.035522327 0.061117455
000310 87 18 a8 bd a1 3d 2b be c2 1b 08 bc f8 95 1a be
       -0.08207803 -0.16722728 -0.008307399 -0.15096271
000320 70 26 21 bc d3 e1 c4 bd 0e 28 99 3d 85 83 b9 3c
       -0.009835824 -0.09613385 0.07478343 0.022645721
000330 8d 5b d7 bd 90 0c 04 be 15 23 aa bd 5f ec 33 3d
       -0.10515509 -0.12895417 -0.083074726 0.043926593
000340 37 20 f3 3d 78 1b 9d 3d 07 fa 09 be 72 ec a0 3d
       0.11871379 0.07671255 -0.13474284 0.07857598
000350 27 2f 43 bd ee 82 25 bd 84 7d b0 bd dd 1a 09 be
       -0.04765239 -0.040408067 -0.0861769 -0.13389154
000360 98 cf 0a 3e 26 11 5b bd 1d eb 24 be c0 65 a7 bd
       0.13555753 -0.05348315 -0.16105314 -0.08173704
000370 b2 1d bf bd f5 12 2b be 2e 69 8c 3c d9 75 04 be
       -0.09331836 -0.1670645 0.017139997 -0.1293558
000380 48 9e 8e 3d 9b 97 84 bd 9a d2 a8 3d cc 43 8e 3c
       0.069637835 -0.06474229 0.08243294 0.017366312
000390 4b fb 07 3d ac 54 f5 3d e3 84 0e 3e 30 5c 16 be
       0.033198636 0.119790405 0.1391788 -0.14683604
0003a0 f4 ff 15 be 6d d3 a2 3d 42 88 82 3d 49 c2 2c 3e
       -0.1464842 0.079504825 0.06373645 0.16870989
0003b0 b7 4c c2 3d 72 f8 a9 bd 18 9e d0 bd 46 9b 82 3d
       0.094872884 -0.0829934 -0.10186404 0.06377272
0003c0 38 9f 1e 3e ef 21 d1 bd fa 47 27 be 0b 04 7f 3b
       0.15490425 -0.102115504 -0.1633605 0.0038912322
0003d0 0f 70 92 3d 05 11 0f be a7 d3 f3 ba a4 83 8b 3d
       0.0715028 -0.13971336 -0.0018602506 0.06812218
0003e0 d6 87 f7 bd 40 ab dc bc 4b e6 d1 3d 4f a1 8c 3c
       -0.120864555 -0.026937127 0.10249003 0.017166762
0003f0 95 35 f8 3d 95 5b 92 3b 4d 82 2e 3d ea cc 06 be
       0.12119595 0.004466484 0.042604733 -0.13164106

net.2.bias f4 [16]
000000 a4 96 19 be ec d2 2a 3d 55 22 26 3d ef 5b ff bd
       -0.14998871 0.041705057 0.040560085 -0.12468707
000010 1c 82 ad 3d 26 54 2d be c3 8d 18 be 84 e0 00 bd
       0.08472082 -0.16926631 -0.14897828 -0.031464115
000020 d6 1c 25 3c 8e b9 db bd 32 0d b4 3c 11 bc 9d bc
       0.010077676 -0.10728751 0.021978948 -0.019254716
000030 b4 0e 87 3a 33 8c 29 3e 3e 81 9c 3d 63 6b db bc
       0.0010304064 0.16557388 0.076418385 -0.026784604

net.4.weight f4 [3, 16]
000000 49 49 3d be 6f 55 76 3e ae 83 3e 3e e3 e2 b3 be
       -0.18484987 0.24056028 0.1860492 -0.35134038
000010 da 33 64 be 78 f3 ba bd 59 0f 47 3e fe 48 1c 3d
       -0.22285405 -0.09128469 0.19439448 0.03815555
000020 e1 78 5d bd 64 ce a2 3e ad a3 72 3e ed 31 29 be
       -0.054070357 0.3179809 0.2369525 -0.16522951
000030 20 65 19 3e 9e 29 c0 bd 30 cd 60 be 7b d3 23 be
       0.14979982 -0.09382938 -0.21953273 -0.15998642
000040 0f 4d 68 3e 13 fa 2c be dc dc 03 bc e7 e4 bb 3d
       0.22685646 -0.1689227 -0.008048262 0.09174519
000050 f9 8a 32 3e 8a 37 2f be ee e6 ba 3c 7b eb 45 be
       0.17435826 -0.1711103 0.022815194 -0.1932811
000060 c6 5c 35 3e e7 38 21 be 91 78 d6 3c 96 da 9a bd
       0.17711172 -0.15744363 0.026180537 -0.07561223
000070 fe 03 0a 3e 04 9c 03 bd b6 71 27 be d4 a0 96 3d
       0.13478085 -0.03213121 -0.16351971 0.07354894
000080 0a 84 47 be 67 e6 d1 3d 8c 6e df 3d 65 c6 b4 3e
       -0.19483963 0.10249024 0.10909757 0.35307613
000090 b3 3c 6c 3e 91 11 2b bd 66 6a 4c 3e 31 61 8f bd
       0.2307003 -0.0417648 0.19962463 -0.0700096
0000a0 3b f5 0d be 66 5f 8b be 1a 0f 1d 3e dd 2f 5d 3e
       -0.13863079 -0.2722122 0.15337792 0.2160029
0000b0 a3 e0 9d 3d bd c3 34 3e 1a de 6a 3e 0f b0 69 bd
       0.07708862 0.17652793 0.22936288 -0.05705267

net.4.bias f4 [3]
000000 67 2c 36 be eb ec 52 be 1a 2f 46 3e
       -0.17790376 -0.2059819 0.19353905
