models/risk_seq_model.pth (torch, 207456 bytes, 10 tensors)

lstm.weight_ih_l0 f4 [256, 3]
00000000: dee7 3fbf 20cb 493f 69a1 afbd 48fe de3d
00000010: 77d4 27b9 0644 0ec0 78ae b6be 0ce8 4a3e
00000020: decc 0240 1038 d2be 1208 c23d 55f6 183f
00000030: 1634 373f fe13 8c3e 56e7 a73f fe7b ff3f
00000040: 6648 43bf 8436 b63d 0610 45be 84c2 3f3f
00000050: 7f94 543d e825 e33e d7ff d63e 5e16 a43e
00000060: f0cb f1bd 6177 87bc a35d b5be bc74 f13e
00000070: 6375 1e3f 5f0f 5b3f 6357 903f ee28 a73e
00000080: 1454 883f 7eb9 3c3f 7fb5 153f 1f47 503e
00000090: 7f2f 413f 6b56 f73e 08e1 823e ed1e 163e
000000a0: aa35 05be 96c1 9c3e 1e4a 8f3d 4bf7 33bd
000000b0: fa71 c2bf 0edd 8b3e e7a9 7bbe a8e9 f6bf
000000c0: a628 3dbd 5043 aa3d 631c 9abf d8c3 2b3f
000000d0: 976e 00be 7295 463f 5d91 e43e 3cc2 c03b
000000e0: 7868 cf3e ef36 4abd 5660 363f b829 e0be
000000f0: 6653 5fc0 5d64 703f a224 d3be 4390 c03e
00000100: 9e14 973e 9619 b13f d145 b4bd 7d83 f13b
00000110: 7cd9 82bf d1ba 413f a419 5b3f 3dcf 623f
00000120: ad75 9ebe d850 e53f ff98 9abe 0fbb 8ebe
00000130: a825 14c0 038e 74be 9163 433f 2467 babc
00000140: aea5 ce3e 9e9a adbf dc09 253f 37ee 2dbd
00000150: f646 ffbd bb5b 92bd 098f cd3e 5419 00bf
00000160: e1c8 f3bd 813c aabe 9d5c f8be 5f76 5f3e
00000170: 9c35 14be 6254 2bbd 1e92 b9bc a3c8 913f
00000180: 8857 90be cf48 cdbd b2b1 c7be 9439 5dbe
00000190: a14b 943e 71fe afbe 84c2 e83d 0b35 9b3e
000001a0: 46d6 05bf c5c4 d8bf f8d1 7dbe 2048 f1be
000001b0: 8b76 273e d625 75be 1c48 acbe 2b56 adbe
000001c0: 8bc2 ee3e e3bf e9be 9df0 4dbf 908b f2bd
000001d0: 58a4 873d 8f99 ddbd a610 ccbd eec0 9cbe
000001e0: 5bbb 233f bc87 d03e b10a c83f 0772 e83d
000001f0: 8856 a9bd b4ba afbf d2a8 1a3f dfcb 94be
00000200: a95a cb3f 1ccd e9bf f1fa 803f f782 23bd
00000210: df51 23c0 80d4 1d3e 1a9e d8bd 71bc 183f
00000220: c821 d83e d439 cebc 11b5 5e3e db5d 57bc
00000230: de42 d73e f1f5 863f 944d 0d3f d905 bd3f
00000240: 90d3 1d3f cefb 3f3f e7eb 9e3f 56c4 0a3d
00000250: 74a7 033f 3a7e 253e ecfd cd3e 7c8d 433e
00000260: 9954 663f 43ca 8fbe c1bb b9bc 8dde 11bf
00000270: 062f 49be e10c 2fbd 9931 2ebc f381 ac3e
00000280: d628 11bf ca56 80bc 0ca2 2d3f 91b8 073f
00000290: 467a 703f 8d34 6abe 6eb1 aa3d 651c 90ba
000002a0: ff4c c43e a3d6 563e cb6e 1fbf db76 1cbe
000002b0: 585b 2a3e 21ae 8cbf c9aa b1bd 3680 55bf
000002c0: 138d 413f 4dc5 3f3f c722 843e a937 323f
000002d0: ec0e e43e e2bd c5be 5c21 c73e b62f 713e
000002e0: 2142 07bf 9e2b 383f 44dc d03f ee05 3e3f
000002f0: 77e9 89be 57f3 47be 6ff4 e33d 0e76 74bf
00000300: 87ef f23e 32da 3a3f 7dbb af3f 82a0 08bf
00000310: 962c 153d cf4f 28be 3ff2 54bc 8402 23be
00000320: 3a19 b2be c56b 483f 7572 b3be ec08 aa3e
00000330: 3555 71bd b4ed d83e 8590 283e dddd f1be
00000340: 6eb9 88c0 f141 73bf 9730 f9be 6c6e bf3e
00000350: 7388 0bbc 08b5 9cbe 6d41 89be 46ec 10be
00000360: 1f2c f7bd f999 883d f6d3 b5bd 9922 ecbc
00000370: 90a0 27bf 1f7c 563e 006b c7be e7fc d1c0
00000380: 6788 b13d 8fcc 183f 21cc 7bbf 8ca6 0f3e
00000390: de6c 09bf f732 0dbf 6e28 40bf 54ce c03c
000003a0: 4164 52be ed46 343f 4118 ddbd 534a b7c0
000003b0: 1cab abbe 6962 bbbf 3821 033d 2301 903e
000003c0: 0488 fe3d 7d33 f6bd 8e2a 133f a0f4 ae3e
000003d0: 8403 f23c 2174 023f 1e98 76bf a183 04c0
000003e0: 096d 87bd cfe9 3c3f 2dda e540 86eb fe3e
000003f0: 1222 a03e fef7 d140 fc58 78bf cfc5 90be
-0.74963176 0.7882557 -0.085757084 0.10888344 -0.0001600551 -2.2229018 -0.35679984 0.19815081
2.043754 -0.41058397 0.094741955 0.5975087 0.7156385 0.27359003 1.3117473 1.9959714
-0.76282346 0.08897117 -0.19244394 0.7490618 0.05189943 0.44364858 0.41992065 0.32048315
-0.11806476 -0.016536416 -0.35423002 0.47159374 0.6189787 0.8557033 1.1276668 0.32648414
1.0650659 0.7372054 0.58480066 0.2033963 0.754631 0.4830812 0.2556231 0.14660235
-0.13008752 0.30616444 0.069965586 -0.04393701 -1.5191033 0.2731709 -0.24576531 -1.9290056
-0.046181343 0.0831362 -1.2039913 0.6709571 -0.12542187 0.77571785 0.44642153 0.0058825295
0.4050939 -0.049368795 0.71240747 -0.4378183 -3.4894652 0.9390314 -0.41238886 0.37610063
0.29507917 1.3835933 -0.08802379 0.007370411 -1.0222621 0.75675684 0.85586 0.8859747
-0.30949154 1.7915297 -0.30194852 -0.2787709 -2.3147984 -0.23882298 0.763238 -0.02275426
0.4036078 -1.356281 0.6446817 -0.042463508 -0.124647066 -0.071464024 0.4014819 -0.5003865
-0.11903549 -0.33249286 -0.48508158 0.21822499 -0.14473575 -0.04182852 -0.022652682 1.1389354
-0.2819178 -0.10023653 -0.39002758 -0.21603996 0.2896395 -0.3437381 0.11365226 0.30313906
-0.5228008 -1.6935049 -0.24787128 -0.4712534 0.16353814 -0.23940215 -0.33648765 -0.33854803
0.466328 -0.4565421 -0.8044527 -0.11843026 0.06623143 -0.108203046 -0.09964113 -0.30615944
0.63957757 0.40728557 1.5628263 0.11349874 -0.08268458 -1.3728852 0.6041385 -0.2906179
1.5887042 -1.826572 1.0076581 -0.03991982 -2.551872 0.15413094 -0.105770305 0.5966254
0.42213273 -0.025174059 0.21748759 -0.0131449355 0.42043203 1.0543805 0.551965 1.476741
0.61650944 0.749936 1.2415742 0.033878647 0.5142739 0.16161433 0.4023279 0.19096941
0.89972836 -0.28084 -0.022672536 -0.5698021 -0.19646844 -0.04273689 -0.010631942 0.33692893
-0.56702936 -0.015666384 0.6782539 0.53016 0.93936574 -0.22871609 0.08334623 -0.001099479
0.38339993 0.20980315 -0.6227843 -0.15279715 0.16636407 -1.099064 -0.08675153 -0.8339876
0.7560589 0.7491043 0.25807783 0.6961618 0.44542634 -0.38621432 0.3889264 0.23553357
-0.5283528 0.71941555 1.631722 0.742278 -0.26935932 -0.1952642 0.111306064 -0.9549264
0.4744837 0.7298919 1.3729092 -0.53369915 0.036419474 -0.16436695 -0.012997209 -0.15918928
-0.3478487 0.78289443 -0.3504826 0.33209932 -0.05891915 0.42368853 0.1646138 -0.4723958
-4.2726355 -0.95022494 -0.48669884 0.37388933 -0.008516419 -0.30606866 -0.26807728 -0.14152631
-0.12068962 0.06669993 -0.08878319 -0.028825091 -0.65479374 0.20945786 -0.38948822 -6.562122
0.08668595 0.5968713 -0.9835835 0.14028376 -0.53681743 -0.5515589 -0.7506169 0.023535885
-0.20546056 0.70420724 -0.10795642 -5.727823 -0.33528984 -1.4639407 0.0320141 0.28125867
0.12428287 -0.12021539 0.5748681 0.3417101 0.029542692 0.5095845 -0.9632586 -2.070534
-0.06612594 0.73794264 7.182883 0.49789065 0.31275994 6.5615225 -0.9701078 -0.28275916

lstm.weight_hh_l0 f4 [256, 64]
00000000: bb1c d33e 860c af3d a5e0 bdbe e447 083f
00000010: c722 b1be 1acf f33e e189 58bf b49f 693f
00000020: a087 c23f 59be a1be 164a 6cbf 03c5 333f
00000030: c943 69be 4585 a0bf 2c26 7f3e 2150 8a3f
00000040: 977d dabe 0281 a33d d4db 093e 7eec 5ebf
00000050: b950 c73f 2245 4bbf 4ecb 5bbe ff01 a0bf
00000060: cb69 d4be 65ad 3e3f 2d03 f8bf 3a85 a3bf
00000070: 21be e9be 6a37 ea3e 7e23 b1bf e534 343e
00000080: b30c 64be 7728 89bf e111 4e3e 1ed9 dabf
00000090: 83b6 21bf 9e5a ba3f 7e5b 6f3e cc3a 9d3e
000000a0: 2e79 833e 3a5f 363f 50bf 013f d443 8e3e
000000b0: 3795 cfbf 1f59 3abe af4e 0abf 15b7 593f
000000c0: e0ed 2e3f f843 2dbf c4ea 9c3e 5c8a 973f
000000d0: b43a 583f 7875 753e da49 bd3e 2879 21bf
000000e0: 5ea2 6f3f 92bc 393f 29e8 d13e fdb3 20bf
000000f0: bd4d 1f40 858e b23e d648 cb3e e45d 123f
00000100: 6653 bf3e 2bc0 6a3f e004 2ebe 4347 7a3d
00000110: 2f8a 8d3e 7abc 07be b12e 8d3e 2cb5 c63f
00000120: a6c7 aebf 9c84 b5bc d7bd 00bf ed73 c8bd
00000130: 3b6e ecbe 7992 8b3f 9a7c 2e3f 7a72 d13e
00000140: dcd7 d43e e3be 953f 471f aebe 989a c73f
00000150: 2359 27bf 2dbe 6b3d 0484 1f3f 6a1f e03d
00000160: 4ec9 ddbe 4794 8abe 402e aebe 55c9 b23e
00000170: 8e34 4c3f ea6b 0a3f b79f b63f 2e7a a23f
00000180: e432 1b3f e12b a73f 829e 71bf 2634 0ebf
00000190: 7950 0040 f4c9 ef3e 2f44 3ebe 70ed 0ebf
000001a0: 4cc1 1e3f 3312 04be eb49 10be 4623 97be
000001b0: b451 213f 9f15 bfbe f4dc a83f c3e2 4a3f
000001c0: 9273 c13f 6fd0 d13e 9003 cf3d f989 b33e
000001d0: b2c7 5abf 088a dd3e 1c87 473f 280d b73f
000001e0: 3168 923f 1921 63bf 1670 823f 1839 a43c
000001f0: 3301 90bf efed d23d 6647 113f dd71 bbbe
00000200: 9be8 20bf ee26 893e 336d 8dbe 90a9 06be
00000210: 1e84 9fbe 9b0b 3cbf 004d 39bf f0ea b33e
00000220: 6696 093e 615b d5be 758f b6be a79f b53e
00000230: 5ae6 103f 83c0 03bf 5bde 123f 7143 d3bd
00000240: 4ca3 293d 4216 c4be 99f1 ff3e 1e4d 493f
00000250: 9879 40bf c249 9d3e d447 7abf b288 82be
00000260: ed2f b3be acc0 43bf fb3a 53bf e32e b5bd
00000270: 95d2 f83c 34cb 933f d517 6bbe c8cd 053f
00000280: 5b33 553e 91be 6d3e 5bae afbe 4875 9ebe
00000290: 49f3 88be 6e8f 813f dc77 b63e dcea 203f
000002a0: 623c ba3e 1920 43be abf3 803f 3aeb 2ebd
000002b0: 512e b6be 1240 b3be 466c 9a3d 22d0 ae3f
000002c0: ccbd 363e 4295 bfbd 0c2e 94be 31c3 f73e
000002d0: 601d 00bf b6da 713f 4e52 1cbe 4963 223f
000002e0: ad19 9ebf 93d8 62be 0eb6 c8bd 7549 f73d
000002f0: 261b 0e3f aaf4 4dbd 14e6 46bf 2c88 cc3e
00000300: 6545 7b3e 3d9f 6ebf a4ee e9bd 5ba2 82be
00000310: b755 603d 4784 c33f 0fd3 c43e 8c94 cb3e
00000320: ea5e 87bf b1a8 b73e 22dd 323e fd05 11bf
00000330: dfc6 0d3d 706a 823f 0a60 cdbf 2a3d debe
00000340: 2930 7abf b3b3 36be 45b5 e33e 1ec8 db3e
00000350: 54d6 903d 564d 4f3e c075 053f d968 e6be
00000360: 756a 9c3e 6b0d 093c 886a d53e 428c 3a3e
00000370: 0111 8f3e 0c95 f33e cb8e 3cbf 94e5 873e
00000380: 3e29 c03d bc3e b1bc 2040 75bf e2e0 2bbf
00000390: 518c 34bf 00bc 993c aadd 8cbd 357d 6bbf
000003a0: 674c 6dbf ed68 423d 19de 9b3e a5d6 70be
000003b0: 6606 5d3e 0a59 fdbe 6a99 56bf a898 b8bf
000003c0: f495 9f3e aedb de3d bade 65bf 62fd e13e
000003d0: 4336 813e f916 14be bf52 0ebf b593 56bf
000003e0: 35cb d4be af3d 6e3f 6a7f e23b db01 f93e
000003f0: ac79 01be 56a5 9c3e 51f8 3f3f 6299 b7be
0.41232857 0.085473105 -0.37085453 0.53234696 -0.34596846 0.47618943 -0.84585387 0.9125931
1.519764 -0.31590536 -0.92300546 0.7022249 -0.22779764 -1.2540671 0.24916905 1.0805703
-0.42673942 0.07983591 0.13462764 -0.8707961 1.557151 -0.79402363 -0.21464273 -1.2500609
-0.41486964 0.7448333 -1.9375969 -1.2775033 -0.4565287 0.45745403 -1.3838956 0.17598303
-0.2227047 -1.0715474 0.20124008 -1.7097509 -0.63169116 1.4558904 0.23374745 0.3070892
0.2567839 0.71239054 0.50682545 0.27786124 -1.6217412 -0.1819806 -0.5402631 0.85044986
0.6833172 -0.6768184 0.30647862 1.1839099 0.84464574 0.23970592 0.36970407 -0.63075495
0.9360713 0.7255336 0.40997437 -0.6277464 2.4891198 0.3487436 0.39704007 0.57174516
0.37368315 0.91699475 -0.16994047 0.061103117 0.27644488 -0.13255492 0.27574685 1.5524039
-1.3654678 -0.02215796 -0.5028967 -0.09787736 -0.4617785 1.0904075 0.68158877 0.4090765
0.41570938 1.1698879 -0.34008238 1.5594053 -0.65370387 0.057554413 0.62310815 0.10943492
-0.43317646 -0.27066252 -0.3401966 0.3491923 0.7976769 0.54070914 1.4267491 1.2693536
0.6062453 1.3060266 -0.9438249 -0.5554832 2.0049117 0.46833766 -0.18580697 -0.5583105
0.620137 -0.12897567 -0.14090697 -0.295191 0.63015294 -0.37321183 1.319243 0.7925226
1.5113394 0.40979335 0.10108101 0.35066202 -0.8546096 0.43269372 0.77940536 1.430089
1.1438047 -0.8872238 1.0190456 0.020046756 -1.1250366 0.102992885 0.5674957 -0.36610308
-0.6285493 0.26787513 -0.27622375 -0.1315062 -0.31155485 -0.7345521 -0.7238312 0.3514018
0.13436279 -0.4167128 -0.35656324 0.35473368 0.5660149 -0.51465625 0.5737054 -0.10315598
0.041415498 -0.3829823 0.49989012 0.78633296 -0.7518554 0.30720335 -0.9776585 -0.25494915
-0.34997502 -0.7646587 -0.8251187 -0.088468336 0.03037385 1.1546388 -0.2295831 0.5226712
0.20820372 0.23217227 -0.3431271 -0.30948853 -0.26748112 1.0121896 0.3563832 0.62858367
0.36374193 -0.19055213 1.0074362 -0.0427048 -0.35582212 -0.3500982 0.07540183 1.3657267
0.1784584 -0.093546405 -0.2894138 0.48391107 -0.5004482 0.9447435 -0.15265772 0.6343275
-1.2351586 -0.22152929 -0.09800349 0.12074558 0.55510175 -0.050282158 -0.7769482 0.3994764
0.2453819 -0.9321173 -0.1142247 -0.25514492 0.054769244 1.5274743 0.38442275 0.3976177
-1.057584 0.3587089 0.17467168 -0.5664976 0.034613486 1.0188732 -1.6044934 -0.4340604
-0.97729737 -0.17841987 0.44474235 0.42926115 0.0707213 0.20244345 0.521328 -0.45001867
0.3054997 0.0083650155 0.4168284 0.18217567 0.2794266 0.4757465 -0.73655385 0.26542342
0.09382866 -0.02163636 -0.9580097 -0.6714002 -0.70526606 0.018766403 -0.068782166 -0.91987926
-0.92694706 0.047463346 0.30442885 -0.2351938 0.21584472 -0.49481994 -0.8382784 -1.4421587
0.31169093 0.10881744 -0.8979298 0.44138628 0.2523671 -0.14461888 -0.5559501 -0.83819133
-0.41561285 0.9306287 0.0069121616 0.48634228 -0.1264407 0.3059489 0.74988276 -0.3585921

lstm.bias_ih_l0 f4 [256]
00000000: f760 86bd 36e0 85bd 0cc1 17be f841 11be
00000010: 2675 383f fca1 e23d e4fc 24bf a648 e83e
00000020: 3d0e e63c de6c 363f 076e a43f 0695 453f
00000030: 860c e33e 62c4 2fc0 28f4 0640 f154 3bbf
00000040: 6cd7 8a3f 7db3 863f 695d 283f bde3 85bf
00000050: 9317 3c3e 47d2 713f ce90 543f 0a91 4fbb
00000060: 0140 3c3f 6cf5 363e 5cc7 cc3e cfec 24bf
00000070: 9803 18bd db48 0dc0 a775 aebf 467a 3fc0
00000080: afa6 9cbd 4160 fdbf fc5c dfbf 5856 dabe
00000090: 2d5f 2fbf 3fb2 c63e 0c19 64bf 938c babe
000000a0: da3d 993f a012 b23f d56a d73e 0bd1 e1be
000000b0: d36c 35be 06e0 10bf 3e9f 893f 6026 7c3f
000000c0: 0f62 083f 4d36 06bf 2eb5 893f fb25 43be
000000d0: 7efe 0bc0 0fe7 723e 0eac 143f 9c1e dcbf
000000e0: 6b2c 38bf 7897 873f fe91 8abe 822f f83e
000000f0: a578 3dbe 7f9b 7d3f b8da 7fbf 3df7 c73f
00000100: f047 fa3e 5ead 51bf 4971 12bf d0f8 6d3e
00000110: 820a 713f 48ac 923c 93ec dbbe c33a 9c3d
00000120: 7e03 59bf 49bd 923e 8ec9 173f dbea ac3b
00000130: 2267 6bbf 12a0 a4bf 9bdc 133f d4e3 0cbf
00000140: 2545 68be ae74 453f 807e 803e 6d77 5bbe
00000150: b5ec 86bf 8acb e83e 3e09 423e 35f8 a2be
00000160: 5c4f 10bf ae88 97be c56a 50bf db9d 94be
00000170: c92a 51bd f976 14bc 23c0 5ebf dfce 44bf
00000180: db52 d9be 6085 1abf 7f95 c1be 5f9d bdbd
00000190: cc69 4cbf 19f5 3bbf 0c8b 30bf b005 0c3f
000001a0: 42dc 5b3f face 763e 7bef 04bf a980 cf3d
000001b0: fe9a 9abe fde5 9abe 0c63 8a3f db42 7e3f
000001c0: 3966 70be c4eb a9bf c38d 1e3f 32d1 813f
000001d0: b7b8 aebf 7029 e4be a7e2 753f df9a 5abf
000001e0: cd0b 04bf 5c77 8c3f 86cc 1c3e 26c1 57be
000001f0: 8f61 06bf da5b 4ebd c56e 33bd 7797 a3be
00000200: 332b c7be 7c00 b0bf 2bb1 e83d fe58 fabe
00000210: 86f0 27bf b3c7 9f3f 4cb0 9cbe a9d9 a5be
00000220: 8a35 57be dc00 4a3f 4222 133e c262 1a3e
00000230: f831 65bf 56f9 7abf 9182 cfbf fe73 0d3f
00000240: 3aaf 86bf 772e 74bf ae62 503f 5f1d b3bf
00000250: d763 1c3f 297d 1abf 0c5c c2bc 4e56 6dbe
00000260: 9f0d 783e 9bd2 e93e 6506 893e 2c86 83be
00000270: d1d1 56bf b977 dbbf d454 c7bf db9c 83bf
00000280: 7e82 febd 79a8 3ebf cc2b 743e 8664 913e
00000290: f6f8 d63e f69b 27bf 6d22 89bf 63c7 3abe
000002a0: 6f78 23bf efef 9cbf 485f ecbd a8fa 6ebd
000002b0: 9cfc dfbd 1389 383d bb9e 6bbe 231c 52bf
000002c0: 9e20 16be fbb2 f6bf df8e 7cbe 897b 54bf
000002d0: db2a 9c3f b842 edbe da9a 35bf 2ee8 ddbf
000002e0: aba8 fd3e 140c 3e3f 0424 21be f4f7 e63e
000002f0: 2a20 2a40 5e60 bfbe ba75 8bbe 13b1 f3be
00000300: 1990 36bf 492b 1cbf ea99 5abf 7ace c43e
00000310: 55fd c63c 0cc6 8e3f 2809 d4be 2b6c 96bd
00000320: a6c1 4bbe 4893 9b3f fb69 0a3f d50c 4ebf
00000330: c159 633e fa42 3fc0 6508 b03f 8999 243f
00000340: d726 583f 7833 de3f 36b1 673f 88f2 c8bf
00000350: 58b9 0a3e 8c51 823e 322d 0e3f 129f 01c0
00000360: 9515 123f 9543 ebbd 383c b03e d55d bdbf
00000370: 64b3 c43e dd85 aabe 1123 783d a1b4 afbf
00000380: e486 453e 4bd1 19c0 fbb9 00c0 f3f6 63be
00000390: 89fc 84be 68c3 6cbf 968d a8be b90f a6bf
000003a0: 793e 1240 8284 873f cd5b 573f 07b9 0ebf
000003b0: 526b 15bf 3a37 a5bf f584 1840 4571 8b3f
000003c0: 58b7 103e 56f1 3b3d f055 5d3e bc76 893e
000003d0: d79d 0ec0 488d 0540 9fe1 0340 dee9 8abe
000003e0: 8b49 0fbe 7955 9a3f 0602 aa3e f81b 423e
000003f0: 5bbd 853f 8233 4bbe 57d7 5ec0 7c05 913f
-0.06561463 -0.065369055 -0.14819735 -0.14185321 0.72053754 0.11066052 -0.6444838 0.45367926
0.028082961 0.7125987 1.2846078 0.77180517 0.44345492 -2.7463613 2.108652 -0.73176485
1.0846992 1.0523525 0.6576753 -1.0460125 0.18368368 0.9446148 0.83033454 -0.0031672143
0.7353516 0.17867059 0.3999585 -0.6442384 -0.037112802 -2.2075717 -1.3629655 -2.991838
-0.0764898 -1.9794999 -1.7450252 -0.42644 -0.685046 0.38807866 -0.8910072 -0.36435375
1.1972001 1.3911934 0.42073694 -0.441048 -0.17717294 -0.5659183 1.0751722 0.98496056
0.53274626 -0.52426606 1.0758417 -0.19057457 -2.187408 0.23720954 0.58075035 -1.7196841
-0.71942776 1.05931 -0.27064508 0.48473746 -0.18503053 0.99065393 -0.99943113 1.5622326
0.4888301 -0.8190516 -0.5720411 0.23239446 0.9415666 0.017904416 -0.4295393 0.076283954
-0.84770954 0.28660038 0.59291923 0.0052770204 -0.91954243 -1.286135 0.5775849 -0.5503514
-0.22682627 0.77131164 0.25096512 -0.21432276 -1.0540987 0.45467788 0.18948838 -0.31829992
-0.5637109 -0.29596466 -0.8141292 -0.29026684 -0.051066194 -0.009061568 -0.8701193 -0.7687816
-0.42446026 -0.60359764 -0.3780937 -0.09258532 -0.79848933 -0.73420864 -0.6896217 0.5469618
0.8588296 0.24102393 -0.5192792 0.10131962 -0.30196375 -0.30253592 1.0811477 0.99320763
-0.23476495 -1.3275075 0.6193506 1.0141966 -1.365012 -0.44562864 0.9604897 -0.85392565
-0.51580507 1.0973926 0.15312394 -0.21069774 -0.5249261 -0.050380565 -0.04380681 -0.31951496
-0.38900146 -1.3750148 0.11361917 -0.4889602 -0.65601385 1.2482818 -0.30603254 -0.32392624
-0.21016517 0.7890756 0.14368537 0.15076736 -0.8952937 -0.98036706 -1.6211721 0.55255115
-1.0522225 -0.953834 0.81400573 -1.3993338 0.61089844 -0.6034723 -0.023725532 -0.23177454
0.24223946 0.45668492 0.2676269 -0.25688303 -0.83913904 -1.7145911 -1.5572762 -1.0282243
-0.12427233 -0.7447582 0.23844832 0.28397006 0.41986817 -0.6547235 -1.0713631 -0.18240122
-0.6385564 -1.2260722 -0.11541611 -0.058344513 -0.10936853 0.0450526 -0.2300977 -0.82074183
-0.1466088 -1.927337 -0.24663876 -0.83001 1.2200578 -0.46339965 -0.7093941 -1.7336481
0.49542746 0.7423718 -0.15736395 0.45111048 2.6582131 -0.3737821 -0.27238256 -0.47596034
-0.71313626 -0.6100355 -0.85391104 0.3843878 0.02429072 1.1154189 -0.41413236 -0.0734485
-0.1989809 1.2154322 0.54067963 -0.8048833 0.22202207 -2.988463 1.3752562 0.64296776
0.84434265 1.7359457 0.9050478 -1.5699015 0.13547266 0.2545284 0.5553771 -2.025334
0.5706418 -0.114874996 0.34420943 -1.479426 0.38418114 -0.33305255 0.060580317 -1.3726999
0.19289738 -2.4033992 -2.0113513 -0.22262172 -0.2597392 -0.92485666 -0.32920521 -1.2973548
2.285063 1.0587313 0.8412445 -0.5575108 -0.5836688 -1.2907479 2.383115 1.0893942
0.1413244 0.045884453 0.21614814 0.268484 -2.2283838 2.0867481 2.0606458 -0.27131552
-0.13992898 1.2057334 0.3320467 0.18955982 1.0448412 -0.19843867 -3.4818933 1.1329799

lstm.bias_hh_l0 f4 [256]
00000000: 86fb 62be a4a1 dbbd ea24 37be 9bab 4fbe
00000010: df69 2e3f 5b74 a23d f0ae 0ebf 7864 e73e
00000020: 5c54 0f3e 984b 413f 1ac7 913f 5012 443f
00000030: 8880 a93e f309 32c0 adf1 0d40 9987 1bbf
00000040: 58ae 8b3f 7c5f 8a3f cf26 0b3f 703b 86bf
00000050: 03ab 103e a514 5e3f 8ef2 5c3f aae9 01be
00000060: 2b68 3d3f 283d 983e 5abf 853e 8da4 0bbf
00000070: f6aa 0cbc ed3d 0ac0 f7fd 97bf bae8 35c0
00000080: 4d0f ae3d cc71 08c0 e3f0 e7bf 15d7 c7be
00000090: fa5a 10bf 6ee9 883e f674 67bf 7670 c6be
000000a0: 8ab5 913f 233f b53f 323c 023f 76a9 b1be
000000b0: d06f 0bbe c404 1bbf 316d 653f e4a7 873f
000000c0: 8989 3a3f 5851 d3be d12b 843f b69d 7abd
000000d0: 40fb 0dc0 5487 003e 776b 223f c495 d5bf
000000e0: c50b 53bf d758 8b3f c4ab 83be 4db7 d73e
000000f0: 1be5 2ebd fd02 803f 3e75 63bf 4d5f cb3f
00000100: 5d9d 263f b643 56bf c066 0dbf 1490 2f3e
00000110: 4b0d 6c3f 3e15 46be ca6e 19bf 2758 383d
00000120: 3751 3bbf 5abe 423e e6d1 2c3f 9cac cb3b
00000130: fd38 39bf 4cd1 9bbf 4909 0b3f 851d 31bf
00000140: 8661 bcbd 2e35 463f b600 573e 7cc4 afbe
00000150: f336 9dbf 6d62 0a3f 427d 463e 4dab 6fbe
00000160: b3cf 1dbf aae1 d8be 3ad2 52bf 00e5 83be
00000170: 5af3 863d 91d4 b1bd 9206 58bf cd3c 58bf
00000180: 7a61 82be dae6 3cbf 72c9 b2be 9b99 a93d
00000190: 1b32 42bf 1811 30bf 0635 2bbf 62b5 0a3f
000001a0: bf99 523f cf91 b43e 9323 30bf 5847 543d
000001b0: ed55 aabe bc41 debe ca52 993f 3b5d 5c3f
000001c0: 3c68 07be 4364 a8bf 05ae 1a3f e386 8a3f
000001d0: ea91 b0bf ff1c 87be 5876 703f 6e7b 75bf
000001e0: 8d0f 09bf 1584 863f ee44 d2bc f144 56be
000001f0: a7dc 1abf f1f0 00bd e94f 74bd 8750 42be
00000200: 9907 b7be 6ac8 a9bf c728 803e 91a5 dfbe
00000210: 69ac 15bf be51 9a3f d334 c6be 9bc4 efbe
00000220: b579 afbe ca63 3d3f bead 923e c3da 723e
00000230: 340e 68bf 9442 7bbf 900b d4bf 9f64 233f
00000240: cc93 82bf 1cc2 8abf 992c 7d3f d784 a2bf
00000250: c3b4 e63e ba2c 11bf 549a 563c b314 b7be
00000260: e126 8e3e 52dc 223f fb1c 383d 8ad0 89be
00000270: 8725 5ebf e3ed d1bf 7d04 bbbf 0fa6 60bf
00000280: 17a8 923d b58f 12bf 6baa a03e 35b3 973e
00000290: ff71 263f 7aec 28bf 33c8 73bf e704 78be
000002a0: a9c4 00bf 6ebf b8bf 737b 54be fcff e13c
000002b0: 5301 2fbe 2631 01bd cb2c 85be ff0d 4ebf
000002c0: 3164 51bd b97b f6bf f26c 96be f257 24bf
000002d0: 0747 a83f 7eff 0dbf 06d9 4fbf 10dd dfbf
000002e0: 5ab0 203f 72e6 3f3f 80ff 38bd 48d9 dd3e
000002f0: c971 2b40 1e4e a3be 595b 17be ea03 24bf
00000300: 4aa3 2bbf 2f47 32bf 2483 4dbf b2bc 903e
00000310: 398f 693e ed3f 823f ee4a c8be 814d 3bbe
00000320: 397c a4be b6a8 963f f678 c03e c853 32bf
00000330: 4793 593e 2034 3cc0 0edc 973f 7a77 0e3f
00000340: 217f 3b3f e799 e63f 6575 6a3f 053a cfbf
00000350: 634f 993e d703 953e aeed 013f 0ff2 04c0
00000360: 300a 1c3f 8031 46be 96f3 c73e 08d3 b5bf
00000370: 4dd1 013f f53e 08bf ff6a e73c c999 a5bf
00000380: 1ddd 113e 07a7 1dc0 c5db 00c0 cd3a 40be
00000390: 120d 51be 2127 36bf fc7e 69be 87f8 92bf
000003a0: 8db8 0f40 477f a03f 53df 6d3f 74d1 eabe
000003b0: 1483 35bf 1620 94bf 7731 1540 dfcd 863f
000003c0: 117f bb3e 154b 023e ee58 5b3e efd9 843e
000003d0: aa5f 0cc0 629f 0240 6c6f 0540 9922 aabe
000003e0: 716c c3bc c121 963f 81fe cf3e 1e6b d63d
000003f0: e1ac 5a3f c2f3 52bd 11d6 5bc0 3b7b 983f
-0.22166261 -0.1072419 -0.17885175 -0.20280306 0.68130296 0.07932349 -0.55735683 0.4519384
0.13997024 0.7550597 1.1388886 0.7659044 0.33105874 -2.7818573 2.2178757 -0.6075378
1.091258 1.081039 0.5435609 -1.0486889 0.14127736 0.8675025 0.8630761 -0.12686792
0.7398707 0.2973416 0.26122552 -0.5454796 -0.008585682 -2.1600296 -1.1874379 -2.8423295
0.08499012 -2.1319456 -1.8120388 -0.39031282 -0.5638882 0.26740593 -0.90412843 -0.38757676
1.1383526 1.4159893 0.508731 -0.346996 -0.13616872 -0.60554147 0.8961974 1.0598111
0.7286611 -0.41272998 1.0325872 -0.06118556 -2.21846 0.12551624 0.6344523 -1.668633
-0.82439834 1.0886487 -0.25716984 0.42132035 -0.04269896 1.0000912 -0.8885077 1.5888458
0.6508387 -0.8369707 -0.5523491 0.17144805 0.92207783 -0.19344041 -0.59934676 0.045005944
-0.731708 0.19017926 0.6750778 0.006215645 -0.7235258 -1.2173247 0.54311043 -0.6918567
-0.091982886 0.77424896 0.20996365 -0.34329593 -1.2282394 0.54056436 0.1938372 -0.2340519
-0.6164505 -0.42359668 -0.8235203 -0.2576065 0.065893844 -0.08683122 -0.84385026 -0.84467775
-0.25464994 -0.7378975 -0.34919316 0.08281251 -0.75857705 -0.68776083 -0.6687778 0.5418302
0.8226585 0.35267493 -0.6880428 0.05182585 -0.3326868 -0.43409526 1.197839 0.8607976
-0.13223356 -1.3155597 0.6042178 1.0822414 -1.379453 -0.2638931 0.9393058 -0.95891464
-0.53539354 1.0509058 -0.025667634 -0.20924737 -0.6049294 -0.03147978 -0.05964652 -0.18976031
-0.35747984 -1.3264287 0.2503111 -0.43681005 -0.584662 1.2056196 -0.38712177 -0.46829686
-0.34272543 0.7398039 0.2864818 0.23716263 -0.9064667 -0.98148465 -1.6566029 0.6382541
-1.0201354 -1.0840487 0.98896176 -1.269679 0.45059785 -0.5670887 0.013098318 -0.3575798
0.27764037 0.6361743 0.044949513 -0.26916915 -0.8677601 -1.6400722 -1.4610745 -0.87753385
0.07160967 -0.5725053 0.3138002 0.29628912 0.65017694 -0.65985835 -0.95227355 -0.2422062
-0.5030008 -1.443342 -0.20750217 0.027587883 -0.17090349 -0.031541012 -0.26010737 -0.80490106
-0.05112094 -1.9256507 -0.29379994 -0.64196694 1.3146676 -0.55467975 -0.81190526 -1.7489338
0.6276909 0.74961007 -0.04516554 0.43329835 2.67882 -0.31895536 -0.1478094 -0.6406847
-0.67046034 -0.6963987 -0.8027823 0.28268963 0.22808541 1.0175759 -0.39119667 -0.18291284
-0.32126024 1.1770236 0.37592286 -0.6965909 0.21247588 -2.9406815 1.186403 0.55651057
0.7324086 1.8015717 0.9158538 -1.6189581 0.2994338 0.29104492 0.50753295 -2.077274
0.60953045 -0.1935482 0.3905303 -1.4205027 0.5070999 -0.53221065 0.028249262 -1.2937557
0.14244504 -2.4633195 -2.0134137 -0.1877243 -0.20415142 -0.71153456 -0.22802347 -1.1482095
2.245639 1.2538842 0.9291889 -0.45862925 -0.70903134 -1.1572292 2.331144 1.0531577
0.3662038 0.12723954 0.21420643 0.2594752 -2.1933389 2.040978 2.0849257 -0.3322952
-0.02385542 1.1729051 0.4062386 0.1046965 0.8542004 -0.051501997 -3.4349406 1.1912607

lstm.weight_ih_l1 f4 [256, 64]
00000000: 25df 1ec0 2405 34bf 4f6e 08be 2f03 6cbe
00000010: 99cc 27be b6c2 95bf 99cd a03f da4e 203f
00000020: 2617 09c0 d847 0bbf a0d7 1f3d 8d11 143f
00000030: 7374 2dbf 8897 dc3f ffcc 573f ea43 ac3f
00000040: dec3 67bd f122 ae3f 59f3 693f 02cd 4040
00000050: 55e9 0a40 dda9 afbf 86cc 63bf 5cc9 443e
00000060: 95ec 5c3f 9f21 e93f bc30 d5be f914 3a3f
00000070: 17f3 bfbf 8f0f febe c7c7 553f 18ca d33e
00000080: 96c0 b63e de81 db3f 9fd3 8fbf 7945 323e
00000090: 10e8 413f 0097 81bb fa72 efbe 5983 a3bf
000000a0: 66e9 6e3f f9b5 f33e 2292 7bbe 5982 153f
000000b0: 232b 2f40 aee9 3abf f3f1 3dbd 2abf 9dbd
000000c0: ed9e d4be 34e8 0bbd 5d97 253f 9f85 223f
000000d0: e980 84bf 78d6 643e 18ee 5c3e 3896 823f
000000e0: d850 86bf fcee 87bf f196 2940 cd6d 103f
000000f0: 80cb a13f b089 59bf bed1 883e 5779 be3e
00000100: 89ff b33e 8ef6 a63f 2e62 acbf e9d4 c6bc
00000110: 8b14 03bf ef3e b9bf 3de6 a83f 7f86 8e3e
00000120: c07a 92bf 84b7 aa3c 30df 32bf f376 603f
00000130: 3e42 1f3f 8aad ea3e a5e9 c93f a5bb 8fbd
00000140: 229c 3f3f 433b ac3f 309b 58bf 00d5 c13f
00000150: b3b5 0440 c8e9 a13e 9448 2fbe b95c b93f
00000160: af9d bb3e e447 953e 3f96 9d3f 9741 20bf
00000170: 4ee9 0ebf eb30 f0be 8b7b c13f 5e3a c53e
00000180: 2e55 e7be b52b 9d3f 7a6d 0bc0 b95c ddbf
00000190: 9a99 b7bf e207 ae3f 5d0f fc3e 54f8 2dbd
000001a0: 08e1 0340 8bb3 ce3f 0dc5 6cbf a1eb 933d
000001b0: a648 e8bf 636a 933c bd97 473f 0ac5 7d3f
000001c0: 83e2 353f ef38 103f dbd9 ea3e f085 9d3e
000001d0: a81e a4bf 72f3 9a3f abc5 2040 9bb6 a73f
000001e0: 01ae a0be 8998 86be 27b6 bb3f 4c79 be3e
000001f0: 7551 c9be a436 413b f45d f33e 9b92 b7bf
00000200: 6514 23be e474 a4be af0b b6b9 b709 853f
00000210: 35b2 d13f ba68 0c3e a758 27bb 9deb 81bf
00000220: 640c a0bf 3e91 2ebf 1f67 c13f a270 3cbf
00000230: fc07 073f ef9d 853f 8533 20bf cf37 44be
00000240: 7fb8 88bf 248b 6e3f 7569 ad3f c992 6a3f
00000250: cd31 e53e 6d0a e3bf 2708 043f 19f5 4fbe
00000260: 4892 823f e476 3440 cee9 e73f f651 1fc0
00000270: 6bc5 07bd 32c1 e73e 986c 013f 96dc b83e
00000280: 00be 9dbe 9d8d 363f 6b23 54bf cc2d 98bf
00000290: 5d84 633e 6403 90bf 6adb 78bf d5f2 46bf
000002a0: 40e1 60be 50d8 b03d 208a 5dc0 d2d3 273e
000002b0: 5b81 1c3f fc85 033f 9b67 77bf 8392 9abf
000002c0: 0a40 0e3f ee04 7fbf 806c 86bf 2f29 9dbf
000002d0: e5d1 843e c571 c4bf eea3 e3be 13bc 6bbd
000002e0: a5ac 003f 9fb0 3fbf 0a18 2d3f 4068 4d3f
000002f0: f332 763f 32b5 d7bf 7f50 7c3e a7a9 0bc0
00000300: f3f1 5dbf 7cdb 053f a183 38be 43be 11c0
00000310: 58f2 b9bf 0cce e1be 8161 01be 72ac 4cbd
00000320: 3b8d 0b40 ab1a 5b3f 0784 0a3e 21e0 b13e
00000330: 8d24 5cbf e6d2 34bf d1d0 973e 1aba b83f
00000340: c417 403f f12b 2abf d1c1 c9bf 2629 9c3f
00000350: 688a bf3f fee9 2dbe 86a1 d9be 384f 633f
00000360: c54e acbf d206 af3e 0412 a9bd 5e35 dbbf
00000370: 11b4 9ebf 3378 7a3d 3ca8 a0bf 9078 e0be
00000380: 2b3c a4be 293d 5f3f 2981 5a3e ccb4 06c0
00000390: a34e 3cbf 919e 3b3f 6373 753f 5ab4 8cbe
000003a0: 8643 153f fbe4 b03e 14c9 4a40 8caa de3f
000003b0: ea22 53c0 e20d c93e 3453 103f 7d11 a4bf
000003c0: 7c2f 4fbe ba00 543f 5745 9dbf 6fd1 cd3d
000003d0: 168a 503e 0c82 e33e 5ffe 723f be38 0abf
000003e0: e6f1 cd3f a367 5f3f ca48 ecbe 9ebb 3dbf
000003f0: be72 193d 2762 bbbe 7b50 33bf b385 463f
-2.4823697 -0.70320344 -0.1332333 -0.2304809 -0.16386642 -1.1700046 1.2562743 0.6262032
-2.1420379 -0.544065 0.039023995 0.5783928 -0.6775581 1.7233744 0.84297174 1.3458226
-0.056583278 1.3604413 0.91386944 3.0125127 2.1704915 -1.3723713 -0.88983953 0.19217438
0.86298496 1.8213385 -0.41638744 0.7268825 -1.499606 -0.49621245 0.8350796 0.41365123
0.35693806 1.7149007 -1.1236457 0.17409314 0.75744724 -0.003954768 -0.46767408 -1.2774459
0.9332489 0.47599772 -0.24567464 0.5840202 2.7370079 -0.73012817 -0.04637332 -0.07702477
-0.415275 -0.034156993 0.6468409 0.6348514 -1.035184 0.22347438 0.215752 1.0202093
-1.0493422 -1.0619807 2.6498377 0.5641754 1.2640228 -0.8497572 0.2672252 0.3720195
0.35155895 1.3043993 -1.3467462 -0.024271445 -0.5120322 -1.4472331 1.3195263 0.27836987
-1.144371 0.02083946 -0.6987181 0.876815 0.6221045 0.45835525 1.5774428 -0.07018212
0.74847615 1.3455585 -0.846118 1.5143127 2.07359 0.31623673 -0.1711753 1.4481422
0.3664374 0.2915641 1.2311476 -0.6260008 -0.55824745 -0.4691232 1.5115827 0.38521093
-0.45182174 1.2278963 -2.178557 -1.7293922 -1.434375 1.3596156 0.4923047 -0.042473152
2.0606098 1.6148542 -0.92488176 0.07222677 -1.814717 0.017995065 0.7796591 0.9912878
0.71048754 0.56336874 0.45869336 0.3076625 -1.2821856 1.2105544 2.5120647 1.3102602
-0.31382754 -0.2628825 1.4664963 0.37201917 -0.3931996 0.0029482031 0.47532618 -1.4341615
-0.15925749 -0.3212043 -0.0003472245 1.039359 1.638251 0.13711825 -0.0025535019 -1.0150028
-1.2503781 -0.6819037 1.5109595 -0.73609364 0.5274656 1.0438823 -0.6257861 -0.19161914
-1.0681304 0.9318106 1.3547808 0.91630226 0.44764557 -1.7737557 0.5157494 -0.20308341
1.0200891 2.8197565 1.8118227 -2.4893775 -0.033147257 0.45264584 0.50556326 0.36105794
-0.3080902 0.71309835 -0.82866544 -1.1888976 0.22218461 -1.1251035 -0.972098 -0.7771428
-0.21960926 0.08635008 -3.4615555 0.16389397 0.6113488 0.5137632 -0.96642464 -1.2075962
0.55566466 -0.996169 -1.0501862 -1.2278193 0.25941387 -1.534722 -0.44461006 -0.05755241
0.50263435 -0.7487888 0.67614806 0.802372 0.9617149 -1.6852171 0.24640082 -2.1822298
-0.8669731 0.5228803 -0.18018962 -2.2772377 -1.4527082 -0.44102514 -0.12634851 -0.049969144
2.180495 0.8558757 0.13526927 0.3474131 -0.8599327 -0.70634305 0.29651502 1.4431794
0.75036263 -0.664733 -1.5762273 1.2200058 1.4964113 -0.16983792 -0.42506045 0.88792753
-1.3461539 0.3418489 -0.08255389 -1.7125661 -1.2398702 0.061149787 -1.2551341 -0.43841982
-0.32077155 0.872027 0.21338333 -2.104785 -0.7355749 0.7328883 0.9587919 -0.27481347
0.5830616 0.34549698 3.1685228 1.7395797 -3.299006 0.39268404 0.5637696 -1.2817837
-0.20232958 0.8281361 -1.2286786 0.10049712 0.20365176 0.44435155 0.9491939 -0.5399283
1.6089447 0.8726751 -0.46149284 -0.74114406 0.037462942 -0.36598322 -0.7004468 0.7754776

lstm.weight_hh_l1 f4 [256, 64]
00000000: 6e15 0c3f 9917 553d 4cbc bcbe 6ea9 bb3e
00000010: 5181 d43f b2ab a03f b602 a8bf 2e21 883f
00000020: 1068 153e 946a 543f 2e84 b1bf d83d 11c0
00000030: 1da8 73c0 e256 9b3d 1df1 94bf fecd 2cbe
00000040: b1ba b93f ba9d de3f 1cbc 81be 89f6 ebbe
00000050: 5203 80be 76f2 e8be 9911 4dbf 8670 21bf
00000060: 365a cb3e 5af4 ae3f 3953 c2be 9ff8 80bf
00000070: a211 803f eef6 87be d3dd 95be b6cb 2f3f
00000080: 6f43 99be a6e7 27bf 54da 42c0 315e d53f
00000090: f2c3 0d40 0264 ef3e ef2b f4be 15ea a3be
000000a0: ed98 4bbf d71e babe 3a89 88bf fb31 803f
000000b0: 5941 7abf 9006 83bd b46e 6cbf 851e 19bf
000000c0: b574 e8be e41a 74bf 395d a93e cf5a c53e
000000d0: 1af9 c53f 8763 953f 70fd acbf 236d 4b3e
000000e0: fd72 9cbf 1172 ffbe 8731 83be 9a5a 433f
000000f0: be47 0e40 522b 833f 9386 59bf f3fd 4fbe
00000100: e952 7f3f b5fa 8dbe c81e e9be 704f d0bd
00000110: ecf1 1b3f c986 1dbf 04a7 143f e969 0cbf
00000120: fb0c 2340 78b4 3d3e dc30 d1bf 1bae a93f
00000130: 8cb4 82bf 5e75 593e dd69 c8be 3a26 4d3f
00000140: 420e a03f 92fa 91bf 265a 8bbe 9d48 bc3f
00000150: 215c 0d3f 3bd8 94bf 7e19 3abe c5a7 f8be
00000160: c1db 3bbf f922 183f d068 d23e ebfb fc3e
00000170: 85f7 d1be 203f abbf e5c1 153f cdc7 aabe
00000180: 1951 1bbd 1eb4 713e 3752 fbbe dfdc 783f
00000190: 742c eabe d930 1f3f d8f6 6ebe f67f 9ebe
000001a0: 4e0e 8e3f b93d 433f 7b4c 693e 19f3 11bf
000001b0: 13b4 553f 0e88 2d3f 5140 eabe 9737 b03e
000001c0: fe1f 17c0 49ed 37bf 13f1 f43e 3005 7ebf
000001d0: a5a4 26bf d604 99be 881d e63f ee74 783f
000001e0: 40ae d0be 7e68 783f cfd1 93bf 3cba 3c3f
000001f0: 9f6f 7bbf 16d5 8a3f 56d1 1f3f 588c 823e
00000200: 0759 a7bf db28 753f 8c29 11be a160 54be
00000210: 37de 273f cd89 e5be 0150 c5be 606a 4a3e
00000220: fc88 973f 8ecc 94bf 37c1 5ebf 02fe 85be
00000230: 1a47 c93c 5b6e 7dbf 558a 603e 0ce8 acbf
00000240: c5a7 ffbe 784e c7bd fd72 fbbe 7934 8abf
00000250: 8843 0a3f 0389 5dbf 8939 f2be 54d1 0f3f
00000260: 07eb d5bd 7924 7c3e 0a3e be3c af95 39bf
00000270: 3b42 873f 893f 18bf 24b7 56be aade 313f
00000280: 0c93 433e e80d 61be 0927 98bf e57a 263f
00000290: 0a28 2a3f e6fc 5f3f 21a8 1f3f 3aef b63e
000002a0: dc22 b23d 5bbe bf3e 3a92 36bc 6d78 0ac0
000002b0: 6c3d 0c3e 92da 963e 96db a9be ebd0 713e
000002c0: 6aa0 2bbf c8c6 6b3f 4103 09bf e078 49bf
000002d0: 49a2 a1be 1c6b 49bf f24a fc3e 2cac 9a3e
000002e0: 6108 6c3e c74d 41be fa65 1c3f 2a0e d8be
000002f0: ef3c 5e3e 9dcd f03f 8bee ffbe 3a3e 8cbf
00000300: 0491 823f d003 853f a57a 0e3e 221e a23f
00000310: 2f0b c23e 5489 97bf eda4 39bf 189a b03e
00000320: b892 92be c27e a3bf 3b5c 4a3e 779a 21be
00000330: e5db 6f3e f06f ba3e af0c 143f 01a7 993f
00000340: 71f3 513f eaff 64be 80cb 103f 2121 1f3c
00000350: 79e2 a0bf 6996 703f 78c7 503e d785 79be
00000360: dc11 633f 3092 2e3f eef2 bdbf 2527 3fbf
00000370: f105 df3e 260a a1bf 300e b9be 3653 eabd
00000380: c582 9a3f 966a a7be 78e2 53be ab23 de3f
00000390: a650 493e d4c7 82bf c7b4 00bf 7f34 47bf
000003a0: ce1f e6bd 5b30 483f 9650 6dbf aff4 0e3f
000003b0: 52b2 6a3f aa9d 29bf 81a1 aabf b412 283f
000003c0: cd38 fbbe d954 533d 58fc 65bf eaf7 abbe
000003d0: be0e e83e 2fc8 913f db05 94bf b777 c6bb
000003e0: 8397 90bd e565 2cbf 91a8 0e3f 6729 a63d
000003f0: 3a11 803f d521 62bd 829d b83f aee7 49bf
0.547202 0.052024458 -0.3686241 0.36652702 1.6601964 1.2552397 -1.3125827 1.0635126
0.14590478 0.82975125 -1.3868463 -2.2693996 -3.8071358 0.07584931 -1.1636082 -0.16875455
1.4510099 1.7391884 -0.2533883 -0.4608653 -0.25002533 -0.45497483 -0.80104977 -0.6306232
0.39717263 1.366832 -0.3795412 -1.0075873 1.0005381 -0.2655558 -0.292708 0.68670213
-0.2993426 -0.6558784 -3.0445757 1.666937 2.2150846 0.46755987 -0.4768977 -0.32014528
-0.7953022 -0.36351654 -1.0666878 1.0015253 -0.9775596 -0.06397736 -0.9235642 -0.59812194
-0.4540154 -0.9535353 0.33078936 0.38545844 1.5466645 1.1670998 -1.3514843 0.19865851
-1.2222592 -0.49891713 -0.25623724 0.7631012 2.2231288 1.0247595 -0.8497097 -0.20311718
0.99735886 -0.27730337 -0.45531297 -0.101714015 0.6091602 -0.6153379 0.58067346 -0.54849106
2.5476673 0.18525875 -1.6343036 1.3256258 -1.0211349 0.21236178 -0.39143267 0.80136454
1.2504351 -1.1404593 -0.27217215 1.470966 0.552187 -1.1628488 -0.18173787 -0.48565498
-0.7338219 0.59428364 0.4109559 0.49410948 -0.41009155 -1.3378639 0.58498985 -0.3335556
-0.037919138 0.23603866 -0.49086162 0.9721202 -0.4573704 0.6218391 -0.23336351 -0.30957
1.1098115 0.76266056 0.22783081 -0.5701156 0.83477896 0.6778573 -0.45752195 0.34417412
-2.3613276 -0.71846443 0.47840175 -0.99226665 -0.6509498 -0.29886502 1.7977762 0.9705342
-0.40757942 0.9703444 -1.1548404 0.7372167 -0.98217195 1.0846279 0.62428796 0.254977
-1.3074044 0.95765465 -0.14176005 -0.20739986 0.6557345 -0.44831696 -0.385376 0.19767141
1.1838679 -1.1624925 -0.8701357 -0.26170355 0.024570037 -0.98996514 0.2192777 -1.3508315
-0.49932685 -0.097317636 -0.49111167 -1.0797263 0.54009295 -0.8653719 -0.4730952 0.56178784
-0.104452185 0.24623288 0.023222942 -0.72494024 1.0567087 -0.59471947 -0.209683 0.69480383
0.19099063 -0.21977961 -1.1886913 0.6503127 0.66467345 0.8749527 0.6236592 0.3572939
0.08698055 0.37449917 -0.011143262 -2.1636002 0.13695306 0.2946363 -0.33175343 0.23614852
-0.6704165 0.9210019 -0.5352059 -0.78700066 -0.31569126 -0.7867906 0.4927593 0.30209482
0.23050071 -0.18877326 0.61093104 -0.42198306 0.21702932 1.8812748 -0.4998668 -1.095649
1.0200505 1.0391788 0.13913973 1.2665446 0.37899157 -1.1838784 -0.7251728 0.34492564
-0.28627563 -1.2773058 0.19761746 -0.1578158 0.23423727 0.36413527 0.57831854 1.200409
0.8201209 -0.22363248 0.56560516 0.009712488 -1.2569114 0.9397951 0.20388591 -0.24367462
0.88699126 0.68191814 -1.4839761 -0.74669105 0.4355922 -1.2581222 -0.36143637 -0.114416525
1.2071158 -0.32698506 -0.2069186 1.7354635 0.19659671 -1.0217233 -0.50275844 -0.7781448
-0.11236535 0.78198785 -0.9270109 0.5584211 0.91678345 -0.662562 -1.3330537 0.6565354
-0.49066773 0.05159459 -0.8983817 -0.3358758 0.45323747 1.1389216 -1.1564287 -0.0060567516
-0.070601486 -0.6734298 0.5572596 0.081133656 1.0005257 -0.055208046 1.4423068 -0.7886914

lstm.bias_ih_l1 f4 [256]
00000000: 90d4 c1bf a12f a6bf be8c 36bf 70a5 c5bf
00000010: 908f 53bf 69fb 38be cd38 8ebf 93d5 4abf
00000020: 8299 843d b45a 9cbf 0112 02c0 cb2b 92bf
00000030: 2687 19c0 3555 00c0 8a37 49bf ee43 8f39
00000040: 39fa 2cbf d76e 77bf 2021 273f 05aa 56bf
00000050: 45c5 69bf f162 9fbf 1a79 823e 61cc 9dbf
00000060: 4e0d 89bf 6cee 88bf db51 52be 88f7 97bf
00000070: cf47 c0bf e19a 2abe 2c33 aabf ac15 9fbf
00000080: 6cde 8b3d 6478 c6bf ef68 52bf 68f4 7abe
00000090: bdfd a5be 24a0 79bf 6571 90bf c63d fb3e
000000a0: 1b47 9abf 8fc6 e13d 95b0 fbbe a18e d0be
000000b0: 498b 56c0 c232 44c0 e7dd 8ebe 6f37 97be
000000c0: 49bb a9bf 4905 8d3e e4a6 c9be a452 6dbf
000000d0: 8157 9ebe ab22 16bf 1816 60bf 539b 0b3f
000000e0: 56c8 5abf 2b3c b9bf 11b0 46bf 7ed6 b43e
000000f0: 008d a0be 858e e3bf d79b aebf 27f5 81bf
00000100: a03f 13bd 86eb b0bf dbb6 1ebf e334 a4bf
00000110: 0f29 f33c f9f5 49bf 8c4e 48be ad63 4f3f
00000120: b2cb d7be 86f8 c2be 26b6 79bf 8868 81bf
00000130: ec7b aabe fb6d 71bf bb21 8cbe 1c62 973d
00000140: 9f4d 353f 8a79 debf c34b be3e 07c0 9abf
00000150: c8c0 a7be fde0 81bf ea58 cfbe 6355 50be
00000160: 0dc3 efbf c813 7cbe b4cf 293e 37a8 19bf
00000170: c11b e5be 7a5e 88bf c68e 403e 6e07 66be
00000180: 40f9 8abf 49cd c5bd c59c 00bf e9c8 1bbf
00000190: 2774 37bf e641 91bf 0eda 9bbf 9731 dfbf
000001a0: bd66 12bf bb59 a9be df74 50bf 70c5 bebe
000001b0: 3c58 e5bf 2669 e0bf 0b4f 4ebf 308a 67bf
000001c0: 405b 253f 01b0 f9bc cc57 65bf 6e2e 3e3e
000001d0: adf2 5abf a5db f9bf 6454 adbe 4d1b 1cbf
000001e0: 06ac 9a3e 7d8c 26bf 6dcd 5bbf f49b 11bf
000001f0: eba9 5abe f1e0 81bf 9433 8bbe e243 4bbf
00000200: 6072 0fbe f2b2 1cbf 43d8 81bd 11d2 e5be
00000210: 66ab 01bf 4295 573f 9df5 7f3e f7ba 123f
00000220: b9fd d2be e233 ac3f 32a5 b9bd fcb4 3cbf
00000230: 2436 663e 99a4 613f 82fc 87be 087f 59bf
00000240: 575f 9dbb 2263 613f 721c e8bd 4bea 2ebe
00000250: 7ff2 493e 2a3e 33bf 4c3d 183f 4843 4f3d
00000260: 2750 19bf 70f6 1abc 6649 903f 1ed1 1cbf
00000270: b6d9 0ebe a938 95be 32a3 bf3e 540b 22be
00000280: 6127 1c3d e7c2 a93e 499b ac3e 448e e2bd
00000290: ece5 673e 2b23 01be fa55 f63e 9137 003e
000002a0: 1611 c53e 1045 f73e 498c a8bd 224e 313f
000002b0: 8d95 edbe 60f7 513f 543b 1a3f 4e13 afbe
000002c0: f0f9 c83d 2895 2abf 984d 5dbf c579 a83d
000002d0: d5d3 12bd d0b8 503e 199b da3e 6ed3 85be
000002e0: e037 093f 3917 8e3e 55fb 493f 7d27 0b3f
000002f0: e886 24bd 78ad 953e 7fa2 20bf eb30 6f3e
00000300: ec37 0bc0 5e45 e4bf 68d1 233e 3a01 1cc0
00000310: d234 463e ef99 07bf e7e2 6ebf 3638 c23e
00000320: f454 cb3e 6ba2 11bf e5ee c9bf 2a57 f2bd
00000330: 479e 89bf 136d 20c0 c8d3 92bf 8b98 fcbe
00000340: de3f b9bf cbce a7bf 5834 e33e 5336 38c0
00000350: 220a 6dbf d90c 0ec0 7da5 ddbe 8806 70be
00000360: 9bfc c7bf ce8a a8bf 277f 11bf 40b5 b4bf
00000370: 9323 dcbf e97e d73d 6208 24c0 b2f3 b0bf
00000380: 1478 833f 0b90 43c0 a61e e1bf 37fe 98be
00000390: eafc 1ebf 065e 0e3f 02b9 01c0 bd03 a8bf
000003a0: 91ef e2be 93ce 9abf eeac 9abf 7be6 c7bf
000003b0: d27c 08c0 2e70 e7bf 093d fabf d560 a23e
000003c0: c387 1cc0 0a1d 34bf 87fa 4ebf 4015 68bf
000003d0: d400 35bf 425d 02c0 9f32 36c0 4e8d 68be
000003e0: 096a 14bf 6910 cebf c373 17be c6f8 083d
000003f0: 56cb aabf 7661 0cc0 5850 84bf cd8a 74bf
-1.5142994 -1.2983285 -0.71308506 -1.5441113 -0.82640934 -0.18064655 -1.1111084 -0.7923214
0.06474592 -1.221518 -2.0323489 -1.1419615 -2.3988738 -2.0052006 -0.7860037 0.00027325697
-0.6756931 -0.96653503 0.6528492 -0.8385318 -0.91316634 -1.245207 0.25483018 -1.2327996
-1.0707185 -1.069776 -0.20539038 -1.1872416 -1.5021914 -0.16660644 -1.3296866 -1.2428489
0.06829533 -1.550549 -0.82191366 -0.24507296 -0.3242015 -0.9750998 -1.1284605 0.49070567
-1.205295 0.110242 -0.4915816 -0.40733817 -3.3522513 -3.065598 -0.27903673 -0.2953448
-1.326028 0.27543095 -0.3938514 -0.92704225 -0.30926135 -0.5864665 -0.8753371 0.5453388
-0.8546194 -1.4471487 -0.77612406 0.35319895 -0.31357574 -1.7777869 -1.3641309 -1.015294
-0.03594935 -1.3821876 -0.61997765 -1.282864 0.029682664 -0.7889095 -0.19561213 0.8101147
-0.42147595 -0.38080233 -0.9754356 -1.0110025 -0.3329767 -0.9430844 -0.27369484 0.0739176
0.70821565 -1.7380841 0.37167177 -1.2089852 -0.32764268 -1.0146786 -0.40497524 -0.20345072
-1.87314 -0.24616921 0.16583139 -0.600223 -0.44747737 -1.0653832 0.18804464 -0.22463772
-1.0857315 -0.09658296 -0.5023921 -0.6085344 -0.7166161 -1.1348236 -1.217592 -1.7437009
-0.57188016 -0.3307627 -0.8142833 -0.37260008 -1.7917552 -1.7532089 -0.8058936 -0.9044523
0.6459236 -0.030479433 -0.8958709 0.18572399 -0.85526544 -1.9520155 -0.33853447 -0.6097916
0.30209368 -0.6505812 -0.8586033 -0.5687859 -0.21353881 -1.0146772 -0.27187788 -0.79400456
-0.14008474 -0.6121055 -0.06340077 -0.4488683 -0.5065216 0.84212124 0.24996038 0.57316536
-0.412092 1.3453333 -0.09064712 -0.7371366 0.2248159 0.8814178 -0.26559836 -0.8495946
-0.004802625 0.8804189 -0.113335505 -0.17081563 0.19721411 -0.7001673 0.5946853 0.050601274
-0.5988793 -0.009458169 1.12724 -0.6125659 -0.13950238 -0.2914479 0.37429196 -0.15824634
0.038123492 0.3315651 0.33712223 -0.11062291 0.22646302 -0.12611072 0.4811247 0.12521197
0.38489598 0.48294878 -0.08229882 0.69259846 -0.4640316 0.8201809 0.6024678 -0.34194416
0.09813297 -0.66633844 -0.86446524 0.08226351 -0.03584655 0.20383 0.42696455 -0.2613787
0.53600883 0.27752092 0.7889913 0.5435713 -0.04016772 0.2923391 -0.6274795 0.23358504
-2.1752882 -1.7833669 0.15997851 -2.4375749 0.19356087 -0.5296926 -0.93314976 0.3793351
0.39713252 -0.56888455 -1.577603 -0.118330315 -1.0751427 -2.5066574 -1.147088 -0.4933513
-1.4472616 -1.3109983 0.44375873 -2.8783157 -0.92593586 -2.2195342 -0.4329032 -0.23439991
-1.5623964 -1.316736 -0.56834644 -1.4117813 -1.7198356 0.10522253 -2.5630116 -1.382437
1.027102 -3.0556667 -1.7587478 -0.2988145 -0.62104666 0.5561222 -2.026917 -1.3126141
-0.443234 -1.2094291 -1.2084024 -1.5617212 -2.1326184 -1.808111 -1.9549876 0.31714502
-2.4457862 -0.7035681 -0.80851024 -0.90657425 -0.7070439 -2.036942 -2.8468397 -0.22710153
-0.57974297 -1.6098758 -0.14790253 0.033440374 -1.3343303 -2.1934485 -1.0337019 -0.95524293

lstm.bias_hh_l1 f4 [256]
00000000: 695e b2bf 9a4e b0bf a790 68bf 5e9a b5bf
00000010: 6ce6 66bf b0ed c7bd a538 87bf 7051 41bf
00000020: 5e15 f83b fc49 95bf add4 02c0 74dd 7abf
00000030: 0e32 0fc0 c4b7 0bc0 5516 2cbf f98c 15bd
00000040: c0b6 3bbf 61ff 85bf c703 143f 13b1 5fbf
00000050: d858 5abf d8e0 9dbf dc26 8e3e 46c0 93bf
00000060: aed7 55bf 383b 78bf 1d43 bcbd efd6 95bf
00000070: 74ac babf 5445 e5bd 2308 94bf 2978 85bf
00000080: 72a7 d23c b3e2 cfbf 8471 4dbf 18e0 bcbe
00000090: c4da 60be 4065 74bf 81e2 a6bf 5f5c ce3e
000000a0: 8c5e a0bf 56b1 213e 9924 e7be b5c7 e6be
000000b0: ec61 55c0 3887 4dc0 4169 b7bd bc73 b1be
000000c0: f31e b2bf d1ca 923e 1636 08bf 9294 4abf
000000d0: 74db 55be 48e8 01bf af31 40bf f304 9d3e
000000e0: af91 5cbf b715 bcbf 853c 47bf 64ea b53e
000000f0: 40be 0abf f4ba cebf 5ffe a2bf b84b 73bf
00000100: ffb0 bebc 1fa5 c3bf c13b 3ebf 62fd 94bf
00000110: 0c60 323d 8700 38bf 7a06 6abe bf63 3a3f
00000120: 63bc 9bbe b163 b0be 62b6 57bf 5882 54bf
00000130: 0825 62be 1871 76bf 28a9 c2be d5e8 f83d
00000140: 2256 3a3f ce8d f8bf 1537 c73e 3c70 9dbf
00000150: 19b5 bebe 66d3 8cbf 23cd ebbe 5d52 9cbe
00000160: 811b f2bf 2efe 7cbe 5512 a43d 70eb 02bf
00000170: 8600 edbe 0604 85bf e3aa 473e 7b2f 91be
00000180: 6217 7fbf f5a8 51be 7344 b9be 92a3 1fbf
00000190: 1608 5ebf f2c7 96bf 56cd a1bf 59e3 ccbf
000001a0: ffa7 e4be 7f56 d1be 4109 58bf 19d0 75be
000001b0: 9d2e eabf 889a e0bf 1393 4dbf 9519 3bbf
000001c0: 0952 ef3e efa8 7fbd 1841 7ebf 6fed 0b3e
000001d0: 08bb 3cbf 1562 e5bf 94c5 ddbe 8ae3 40bf
000001e0: 4f79 bb3e f852 f5be dea0 28bf 5c97 febe
000001f0: e7fd 89be ecf0 50bf 2d44 85be af13 2ebf
00000200: 8a73 71be 4258 1ebf 60e1 1dbe cf8c 8ebe
00000210: 0c01 dabe cfc5 533f fa33 983e 2a74 213f
00000220: 41fc 85be e06a 9c3f 586c dc3d 5dfb 44bf
00000230: 00df 083e 97e3 713f 04ba 46be 2d75 72bf
00000240: da19 cdbd e086 413f 73bf a9bd 531a 72be
00000250: 1b61 6d3e 796f 35bf 2282 393f 5ffd 04bc
00000260: 1ec0 16bf 6d10 21be eebd 833f c23d 20bf
00000270: a1c9 5bbe 82ef 86be 4d1a fa3e 64dc 7ebe
00000280: d377 763e 2888 883e 77af 783e d3c4 dabd
00000290: bcf9 b93e 1b8c d33b 0b68 e93e bc13 023c
000002a0: e3b3 b23e 6d56 213f 9aa6 5cbe 802a fe3e
000002b0: a349 ffbe 7762 4b3f 8ac2 3c3f c2d3 e9be
000002c0: 28f0 d7bc 2535 27bf 0476 42bf a0a5 c1bc
000002d0: b104 adbb c460 263e 74d5 0b3f 96e9 21be
000002e0: 4f83 1d3f 77ca ad3e 5495 323f a2c1 183f
000002f0: 5384 cebc c256 c63d 84a4 31bf 9ed8 403e
00000300: b250 00c0 2c85 e2bf f9e1 893e 3541 10c0
00000310: b3bc 5b3e fe8d c4be 43a9 8cbf 17df 803e
00000320: 2bda 143f 2b11 f5be 6e87 c1bf 8f14 943d
00000330: e049 8cbf 344c 25c0 6f78 94bf 0800 bdbe
00000340: 1aa4 ccbf 4094 a1bf 567a ac3e da56 3dc0
00000350: 1f72 6ebf d479 15c0 d414 8cbe 25a2 c2be
00000360: 621a c0bf 9ec4 92bf 4f67 16bf bdc3 a0bf
00000370: e10c d3bf 7959 253d bb9a 22c0 d396 b5bf
00000380: 24e1 773f 7cdd 44c0 345e ccbf 6a12 dfbe
00000390: be2a 3cbf eb35 213f 54f0 09c0 0bd3 b4bf
000003a0: b35c 03bf 02ac 90bf f30e 9fbf 0ff6 c0bf
000003b0: a244 01c0 f1b9 eebf 9810 f6bf 8b5a 8a3e
000003c0: 765c 12c0 a97d 29bf c4f1 18bf 4d7c 7fbf
000003d0: 023d 31bf eda3 05c0 8225 3cc0 c0eb 45be
000003e0: 0d7a 2dbf a3b7 ccbf cb38 dcbd e4b3 3b3d
000003f0: 7e9e a4bf 8307 0bc0 add7 7cbf 81b9 78bf
-1.3935062 -1.3773987 -0.9084572 -1.4187734 -0.90195346 -0.09762132 -1.0564162 -0.7551489
0.0075709065 -1.1663203 -2.0442307 -0.9799416 -2.23743 -2.1830912 -0.67221576 -0.036511395
-0.7332573 -1.046856 0.57818264 -0.8737957 -0.85291815 -1.2334242 0.27764022 -1.1543052
-0.83532226 -0.9696536 -0.09192488 -1.1706218 -1.4583879 -0.11194864 -1.1564983 -1.0427295
0.02571461 -1.6241058 -0.80251336 -0.3688972 -0.21958452 -0.95466995 -1.3037874 0.4030485
-1.2528853 0.15790305 -0.4514511 -0.4507424 -3.3341017 -3.211378 -0.089556225 -0.3465861
-1.3915695 0.28670362 -0.5320753 -0.7913295 -0.20884496 -0.5074506 -0.7507581 0.30667838
-0.86159796 -1.4694127 -0.7782672 0.35530388 -0.5419655 -1.6150804 -1.2733878 -0.9503741
-0.023277758 -1.5284766 -0.7430993 -1.1639826 0.04354863 -0.71875805 -0.22854033 0.7280845
-0.30417165 -0.34451059 -0.8426267 -0.8301139 -0.22084439 -0.9626632 -0.3801968 0.12153784
0.7278768 -1.9418275 0.38909212 -1.2299876 -0.37247542 -1.1002014 -0.46054944 -0.30531588
-1.8914644 -0.24706337 0.08011309 -0.511405 -0.46289462 -1.0391853 0.19498782 -0.28356537
-0.99645054 -0.20474608 -0.36185035 -0.62358963 -0.8673109 -1.1779768 -1.2640789 -1.6006881
-0.4465942 -0.40886304 -0.8438912 -0.24005164 -1.8295475 -1.7547159 -0.8030254 -0.7308591
0.46742275 -0.062416967 -0.99318075 0.13664792 -0.7372289 -1.7920557 -0.43314803 -0.753472
0.3661599 -0.47914863 -0.65870464 -0.49724853 -0.26951525 -0.8161762 -0.26028576 -0.67998785
-0.23579231 -0.6185342 -0.15418005 -0.27841803 -0.42578924 0.82723707 0.29727155 0.6306788
-0.26169017 1.2220116 0.107628524 -0.7694605 0.13366318 0.944879 -0.19406897 -0.94710046
-0.100146964 0.7559643 -0.08288469 -0.23642854 0.23181574 -0.7087322 0.7246419 -0.008117049
-0.588869 -0.15728922 1.0292337 -0.62594235 -0.21463634 -0.26354605 0.4884819 -0.2488876
0.24069147 0.2666638 0.24285685 -0.106820725 0.36323345 0.006455911 0.4558719 0.007939275
0.34902868 0.630225 -0.21547928 0.496418 -0.49860868 0.7944712 0.73734343 -0.4566937
-0.026359633 -0.6531547 -0.7596133 -0.023638546 -0.0052801003 0.1624785 0.5462258 -0.15811762
0.61528486 0.3394353 0.69759107 0.5967046 -0.025209581 0.096845165 -0.69391656 0.18832633
-2.0049253 -1.7696891 0.26930216 -2.25398 0.21458702 -0.3838958 -1.0989155 0.25170204
0.581454 -0.4786466 -1.5119455 0.07230484 -1.0960045 -2.582776 -1.1599253 -0.36914086
-1.598758 -1.2623367 0.33687085 -2.958426 -0.93142885 -2.3355608 -0.2735964 -0.3801433
-1.5008051 -1.1466253 -0.58751386 -1.2559735 -1.6488305 0.04036853 -2.540694 -1.4186653
0.9682791 -3.0760183 -1.5966249 -0.43568736 -0.7350272 0.629729 -2.1552935 -1.4126905
-0.5131332 -1.1302493 -1.2426437 -1.5075091 -2.019814 -1.8650495 -1.9223814 0.27022204
-2.2868934 -0.6620737 -0.59743905 -0.9979904 -0.69233716 -2.0881302 -2.9397893 -0.19328213
-0.6776436 -1.5993541 -0.1075302 0.045825854 -1.2860868 -2.1723335 -0.98766595 -0.97158056
