models/velocity_model.pth (torch, 4009 bytes, 5 tensors)

net.0.weight f4 [16, 3]
-0.5232319 -0.5525799 0.49493897 0.36858356 -0.091094494 -0.41578588 -1.1936773 0.23887844
0.9108581 -0.042989504 1.1130689 0.02411279 0.6914344 0.18609282 -1.9317722 -1.3000314
-0.0899686 1.0195575 0.16211581 -1.536348 0.2717118 -1.0471892 0.0155583965 1.1092123
-0.8850761 -0.8576714 1.082621 -0.35377675 1.2945454 0.20696089 1.2564805 0.12092382
-1.3221503 0.9901852 -0.86013234 0.05207229 0.4866237 1.0199689 -0.5008739 -0.097848535
1.2047393 -1.2993069 -0.25857133 -0.019867163 -0.40372708 0.40543714 -0.4779391 -0.20932893
00000000: 87f2 05bf e075 0dbf a468 fd3e fcb6 bc3e
00000010: c08f babd e3e1 d4be 6bca 98bf 8d9c 743e
00000020: ff2d 693f c315 30bd 0b79 8e3f 3088 c53c
00000030: d801 313f 1e8f 3e3e 5044 f7bf 6e67 a6bf
00000040: 7541 b8bd dc80 823f b001 263e 0da7 c4bf
00000050: cf1d 8b3e 4c0a 86bf a5e8 7e3c abfa 8d3f
00000060: 5994 62bf 5a90 5bbf 5393 8a3f 3a22 b5be
00000070: aab3 a53f 8eed 533e 5ad4 a03f e8a6 f73d
00000080: 393c a9bf c77c 7d3f a231 5cbf c149 553d
00000090: be26 f93e 578e 823f 4639 00bf d064 c8bd
000000a0: e634 9a3f b04f a6bf 7663 84be 76c0 a2bc
000000b0: 51b5 cebe 7595 cf3e 6fb4 f4be 535a 56be

net.0.bias f4 [16]
-0.24352711 -0.44788507 0.044377342 0.008327868 0.0002634494 -0.026546514 0.3703441 0.047498874
0.41323474 0.07006389 -0.042838085 0.16418993 0.0023940506 0.21620141 0.47084385 -0.3153598
00000000: 2c5f 79be 3151 e5be 04c5 353d 9c71 083c
00000010: 941f 8a39 1378 d9bc be9d bd3e 2e8e 423d
00000020: 8193 d33e a87d 8f3d fd76 2fbd 6821 283e
00000030: 81e5 1c3b e763 5d3e 7212 f13e d776 a1be

net.2.weight f4 [8, 16]
-0.13920078 -0.21815667 0.12258421 -0.38173866 0.1682127 0.24060985 -1.2578686 0.18632337
1.1700442 -0.02959378 0.7639543 -1.2367417 0.3607653 -5.04434 1.1526042 0.31878054
0.22063762 0.20787686 -0.030136561 0.2416353 0.0032287245 0.46906084 0.40673953 0.22301601
-0.2585372 0.6502055 -0.5380218 0.513185 0.5895866 -0.0178261 -0.39862654 -0.25809205
0.23184875 0.24108684 0.03631405 0.039762814 0.5807307 -5.3697257 0.58477646 -0.21537031
-0.64315027 0.4216564 -0.36871523 0.2666146 0.43544593 -0.15825237 0.26770657 -0.37083608
0.035245985 0.14033535 0.06294975 0.024368208 -0.21231821 -0.16886747 -0.15503278 -0.36090377
0.035975803 0.07362998 -0.034233492 -0.047305793 -0.20167398 -0.17278148 -0.27007917 0.10613774
-0.0880602 0.19078419 0.48089293 0.707749 -0.15614936 -0.19482069 0.43947524 0.21477543
-0.38803643 0.61450714 -0.36890498 0.4951424 0.72909695 -0.06738498 -0.021041272 -0.19664718
0.16868699 -0.07471588 0.03523074 -0.014640143 0.09503908 -0.081038 0.16120233 -0.0049592606
-0.17137538 -0.10061233 0.11211821 -0.06560119 0.06193959 -0.18804441 -0.20819856 0.18433112
0.0017706156 -0.2203635 1.2880853 -0.33269966 -2.3469744 -0.6762324 0.40813765 -10.865034
-1.7195044 -0.34460413 0.1631687 0.83949286 -0.3609963 -2.6747706 0.22710311 -0.0006293334
0.048850685 -0.24401376 -3.7250106 0.2641706 -0.45393118 -1.6552882 0.943905 -0.6757296
0.8759589 -0.29214075 1.6545634 0.35843724 0.43997192 0.7006871 -0.494664 -0.1417494
00000000: a68a 0ebe 7664 5fbe 6e0d fb3d 4073 c3be
00000010: f33f 2c3e 6e62 763e d701 a1bf 8ecb 3e3e
00000020: 02c4 953f a86e f2bc 8292 433f 8d4d 9ebf
00000030: 3bb6 b83e 3c6b a1c0 8988 933f 3437 a33e
00000040: d4ee 613e acdd 543e f3e0 f6bc 3e6f 773e
00000050: 0299 533b be28 f03e 2a40 d03e 4f5e 643e
00000060: fd5e 84be de73 263f ccbb 09bf 1860 033f
00000070: 26ef 163f 0b08 92bc c718 ccbe a424 84be
00000080: c269 6d3e 78df 763e 0bbe 143d 55de 223d
00000090: c4aa 143f cbd4 abc0 e9b3 153f 098a 5cbe
000000a0: 7fa5 24bf 59e3 d73e 3ec8 bcbe b581 883e
000000b0: c5f2 de3e e90c 22be d610 893e 3ade bdbe
000000c0: 185e 103d 12b4 0f3e cceb 803d d69f c73c
000000d0: f269 59be 98eb 2cbe eac0 1ebe 61c8 b8be
000000e0: 5d5b 133d 51cb 963d 6b38 0cbd b8c3 41bd
000000f0: a083 4ebe a1ed 30be d147 8abe be5e d93d
00000100: e858 b4bd ee5c 433e 9937 f63e 0a2f 353f
00000110: 9ee5 1fbe 137f 47be e602 e13e 17ee 5b3e
00000120: b6ac c6be 5750 1d3f 1de1 bcbe 4e83 fd3e
00000130: 19a6 3a3f 2301 8abd bf5e acbc e15d 49be
00000140: 48bc 2c3e a404 99bd 1c4e 103d 36dd 6fbc
00000150: d9a3 c23d 40f7 a5bd 3912 253e 4b81 a2bb
00000160: 077d 2fbe d60d cebd 3b9e e53d eb59 86bd
00000170: 5eb4 7d3d b78e 40be 0132 55be 4cc1 3c3e
00000180: 0014 e83a f8a6 61be fbdf a43f 9c57 aabe
00000190: d434 16c0 911d 2dbf 6bf7 d03e 2ed7 2dc1
000001a0: b818 dcbf f46f b0be b215 273e 01e9 563f
000001b0: 82d4 b8be 712f 2bc0 b88d 683e d9f9 24ba
000001c0: a817 483d bede 79be 9366 6ec0 5e41 873e
000001d0: ab69 e8be 7ce0 d3bf c2a3 713f 9dfc 2cbf
000001e0: d83e 603f 7993 95be bcc8 d33f 1685 b73e
000001f0: 0044 e13e 3b60 333f 9a44 fdbe c126 11be

net.2.bias f4 [8]
-0.11080799 0.007987281 -0.11587505 0.0550653 -0.123979695 -0.19057047 0.6357852 -0.006880279
00000000: 4def e2bd 16dd 023c e64f edbd 278c 613d
00000010: 11e9 fdbd e824 43be d2c2 223f f773 e1bb

net.4.weight f4 [1, 8]
-0.2829261 0.16773097 0.041405465 -0.09378177 0.23900801 0.15253739 0.45720336 -0.21741012
00000000: b1db 90be abc1 2b3e c798 293d a810 c0bd
00000010: 84be 743e c332 1c3e 8f16 ea3e c2a0 5ebe
